weights/pf_14/epoch1.pt (torch, 582498 bytes, 25 tensors)

conv_feature_extractor.weight f4 [25, 1, 7, 7]
000000 ce 44 c7 3d 5c 9c 44 3e a5 48 78 3e b1 f8 bd 3e
       0.0972992 0.19200271 0.24246462 0.371038
000010 9c 99 77 3e 59 8d 20 3e 82 ca 17 3d fc 45 dc 3c
       0.24179691 0.1567892 0.03705836 0.02688884
000020 55 9d 5a be 14 82 82 be ce 89 85 be 83 03 43 be
       -0.2134908 -0.25489867 -0.260817 -0.19044308
000030 5a 6e 5a 3c ae 27 8d 3e 54 97 f5 bd fb 9a a8 bc
       0.013331974 0.27569336 -0.11991754 -0.020581713
000040 a1 c2 b8 bc b9 1c 90 bd 36 5b 41 bd d7 83 36 bd
       -0.022553744 -0.070367284 -0.047206126 -0.044559326
000050 d8 a0 11 bd 39 92 0f 3e b8 61 a1 3e 07 c2 d2 3e
       -0.035553783 0.14020623 0.31519866 0.41163656
000060 10 a7 e2 3e d3 a1 b9 3e 09 60 8d 3e ec 39 e6 3d
       0.44268084 0.36256275 0.27612332 0.112415165
000070 eb 24 0a be 2e 7f 8b be 07 77 9d be da 29 8e be
       -0.13490646 -0.27245468 -0.30754873 -0.27766305
000080 a7 6b 95 be 34 85 75 be 7d 2f 88 be c0 5c 82 3d
       -0.29183695 -0.23976594 -0.2659873 0.06365347
000090 66 64 e0 bd d9 a8 4e be 8b 30 76 be f4 08 39 be
       -0.109566495 -0.20181598 -0.24041955 -0.18069822
0000a0 12 d2 0c be 7f fb 2b be d0 63 bd bd bd 16 f9 3c
       -0.1375201 -0.16795157 -0.09247553 0.03040635
0000b0 4d e2 7b 3d e6 ee 56 3e 60 5e 8b 3e 87 99 bd 3e
       0.061495114 0.2098957 0.2722044 0.37031195
0000c0 8a df 54 3e 12 01 43 bd de 53 93 3e 04 f0 9f 3e
       0.20788398 -0.047608443 0.28774923 0.31237805
0000d0 24 8a 78 3e f3 91 16 3c 3f 20 d8 3d 1c 7b 6f 3e
       0.24271446 0.00919007 0.105530255 0.23386806
0000e0 71 6b 2f 3d 8e 5c 73 bd 14 8e 6c be f4 06 a1 be
       0.042827073 -0.05941444 -0.23101074 -0.31450617
0000f0 09 40 90 be d5 a8 f9 bd bc 06 b5 3d 08 b3 45 bd
       -0.28173855 -0.12190405 0.08839175 -0.04826644
000100 aa 36 aa be ef 9c c3 be 0b ee f1 bd 9b 01 40 3e
       -0.3324483 -0.38205668 -0.11812981 0.18750612
000110 b0 f7 bf 3e f0 71 b7 bd 8e 5f 12 be 25 e6 8f 3e
       0.37493658 -0.08957279 -0.14294264 0.28105274
000120 42 1d d7 3e 69 27 d6 3e 25 39 c8 3e 6e 76 ea 3d
       0.4201451 0.41826943 0.39106098 0.1144837
000130 eb 44 32 be f2 1b 81 be 06 34 4b 3d c1 97 15 3e
       -0.17409103 -0.25216633 0.04961016 0.14608671
000140 2e ff 79 bd 5f 92 90 be 27 a2 a9 be 96 4f 4d be
       -0.061034374 -0.28236672 -0.33131525 -0.20049891
000150 cb fb 52 be b9 60 ef be 6d 15 f6 be 12 71 b8 be
       -0.20603864 -0.4675348 -0.48063222 -0.36023766
000160 41 1f 6d be 9d 2f a1 bd 19 2b 59 bc 56 69 0a be
       -0.23156454 -0.0787041 -0.013254904 -0.13516745
000170 ce 0e fa bd 16 cb 94 bd 83 81 31 3d b9 24 6c bd
       -0.12209855 -0.07265298 0.043336403 -0.05765221
000180 98 e6 9d bd 3c 6c 29 bc 12 a6 63 bd c0 e6 b0 3d
       -0.07709998 -0.0103407465 -0.0555783 0.08637762
000190 46 a4 21 3e 52 7c 00 3e b1 df 08 3e 1f cb 13 3d
       0.15785322 0.12547424 0.13366581 0.036082383
0001a0 74 99 c9 3b bd b4 b5 bd 13 3c 45 3d a9 04 5a be
       0.0061523262 -0.08872364 0.048152994 -0.2129084
0001b0 5a f9 c6 be 52 eb 05 bf 71 a8 b4 bd af bf cf bc
       -0.38862115 -0.52312195 -0.0882119 -0.025359957
0001c0 a9 db 88 be a9 47 dc be 34 a5 ce be ce e3 82 be
       -0.26730087 -0.43023422 -0.40360415 -0.25564426
0001d0 0b b9 95 3e 2d c5 98 3e 69 44 ec bd ad 05 ce be
       0.2924274 0.29837933 -0.11536486 -0.40238705
0001e0 b0 90 83 be 7c 1a fb 3d 6b c2 d2 3e 79 57 85 3e
       -0.25696325 0.12260911 0.41163954 0.260433
0001f0 c0 42 5d be d9 f1 46 be 19 54 6f bd a9 b9 10 3e
       -0.21607494 -0.19428195 -0.05842981 0.14133324
000200 b0 85 8e 3e dc ff 02 be ec 7a b7 be c8 cb 6c be
       0.2783637 -0.12792915 -0.3583597 -0.23124611
000210 b7 51 86 3c ce 4a bd 3d 89 6f 9c 3d 46 f8 73 be
       0.016396387 0.092427835 0.07638461 -0.23825178
000220 c1 d7 94 be fb 15 85 bd 98 27 99 3d 06 9b f4 3d
       -0.29070857 -0.06498333 0.07478255 0.11943631
000230 fa 70 19 3e c0 f0 2e 3e 0e a8 80 3e 57 fe 69 3e
       0.14984503 0.17084026 0.25128216 0.22850929
000240 21 8d 01 3e c2 4e 04 3e 45 63 3a 3e e6 f8 06 be
       0.12651493 0.12920669 0.18201931 -0.13180885
000250 b3 8c 3b 3e a8 97 88 3e 72 51 03 bf f7 6f 9a be
       0.18315391 0.26678205 -0.5129615 -0.30163547
000260 74 f0 9a bd 1e b5 7c 3c 7e a6 84 bc 10 e7 83 3e
       -0.07565394 0.015424041 -0.01619267 0.25762224
000270 89 b7 92 be b5 6f c3 be 1b 24 18 3e 44 aa a9 3e
       -0.2865565 -0.38171163 0.14857523 0.33137715
000280 19 09 06 be 8a 56 25 3e 93 1b 63 be 1b e6 ff be
       -0.13089408 0.16146293 -0.22178487 -0.49980244
000290 4e 6e 07 3e ed 40 e6 3e 63 a3 69 bd 52 ff 8e be
       0.13225672 0.4497141 -0.057040583 -0.2792917
0002a0 0f 5c 1d bc 1c c6 a2 be b7 c2 0f bd f0 05 de 3e
       -0.009604468 -0.3179177 -0.035097804 0.43363905
0002b0 4f ef 8b bd ec d9 f4 be b8 c3 c3 bd 7a d5 ad bc
       -0.06832754 -0.4782251 -0.09558815 -0.021219958
0002c0 1a 9a cc bd 92 a2 92 3e 88 49 33 bd 5d f2 fa be
       -0.0999033 0.28639656 -0.043771297 -0.49013034
0002d0 8a e4 02 be b9 1c 95 3e 3e 7f 17 bd ff 88 cf 3d
       -0.12782493 0.29123476 -0.036986582 0.10133552
0002e0 7b 81 7c bd 33 d7 99 be 26 6e c5 bd ea 5f 3a 3e
       -0.06164692 -0.30046996 -0.0964015 0.18200651
0002f0 1f d2 b9 3d 78 79 ba bd 9a b8 61 be 38 16 61 bd
       0.090732805 -0.091051996 -0.22043076 -0.05495283
000300 ac e9 99 bd cf 97 d3 3d e4 11 8f 3d 26 29 81 3c
       -0.075152725 0.103316896 0.06985834 0.015766691
000310 0b 26 bd be 98 77 2c 3d 64 a5 18 3e 1c 31 f0 be
       -0.36943087 0.04210624 0.14906842 -0.46912467
000320 b5 d0 98 3d 7e 8c 41 bc a1 0f b3 bd 58 b5 05 be
       0.07461683 -0.011813281 -0.08743215 -0.13057458
000330 93 b1 64 3e 6c a9 87 be bc aa b9 3d 6c b1 0b 3f
       0.22333364 -0.26496446 0.09065768 0.545676
000340 65 ac c4 3d a6 c3 1a be 97 c9 f4 3c cb e2 dc bd
       0.09603194 -0.15113696 0.029881282 -0.10785445
000350 19 8e 0a be ab 61 2f 3f 1f f9 23 3f 92 36 3f be
       -0.13530768 0.68508404 0.64052004 -0.1867316
000360 fc 48 27 bd 51 86 9d ba 10 1b 46 be ce 7f ac 3e
       -0.040841088 -0.0012018179 -0.19346261 0.33691257
000370 e5 b8 54 3f 80 1f 84 3e 9c 59 f5 be 32 f2 c1 3b
       0.83094627 0.25805283 -0.4791993 0.0059187645
000380 48 73 19 3e 2a 42 e7 bd da ba 0b 3f ec 56 12 3f
       0.14985383 -0.11291917 0.5458199 0.5716388
000390 62 8c 29 bf d4 2d b6 be e6 11 91 3e 4f a7 a2 3d
       -0.6622983 -0.3558184 0.28333968 0.07942068
0003a0 40 27 a9 3c b5 d4 e2 3e 1d 94 ba be a6 4c 17 bf
       0.020648599 0.44302908 -0.36441126 -0.5910133
0003b0 77 be 63 3e 7d 7c 23 3e 65 3f d7 bd 0c 4a 39 be
       0.22240625 0.15965457 -0.105101384 -0.18094653
0003c0 bf 08 0d be fc 45 82 be 41 9a 88 3e fd 24 82 3e
       -0.13772868 -0.2544402 0.26680186 0.25418845
0003d0 18 b6 1c bd c6 9e 36 be 80 24 ca 3d 51 4e 17 bc
       -0.038259596 -0.17834005 0.09870243 -0.009234981
0003e0 65 56 9e 3d d0 f3 3a be 2f 83 94 be 76 f3 83 be
       0.07731322 -0.1825707 -0.29006335 -0.25771683
0003f0 92 20 01 3e 64 99 7b bb 5a 7e 9f be 12 0e d1 3e
       0.12610081 -0.0038390988 -0.31151086 0.40831047

conv_feature_extractor.bias f4 [25]
000000 10 6a ee bc 1e c7 e3 3c b0 8f 85 3d bf a6 91 3e
       -0.029103309 0.027804907 0.06521547 0.2844753
000010 9f cb df 3d 47 aa 6c 3d 36 5e 7e be 36 31 3b bd
       0.109275095 0.057779577 -0.24840626 -0.045701228
000020 9b 6d a1 3d 59 b2 35 3e d3 ca 5a 3e 0a 78 24 bd
       0.07882234 0.17743815 0.21366434 -0.04015354
000030 64 9d 0e bd 41 00 99 3a 86 36 5a be e5 72 be bd
       -0.03481807 0.0011673049 -0.21309862 -0.09299258
000040 62 62 16 bd 48 27 3e 3e ca 7a ee bc f9 51 b4 bd
       -0.03671492 0.18569672 -0.029111285 -0.088046975
000050 32 49 43 3d 3d 38 b5 be a6 24 c7 3d 7a 9d e6 be
       0.047677226 -0.3539447 0.09723787 -0.4504202
000060 d3 16 b9 bd
       -0.090375565

hgru_unit.gain_bias f4 [1, 25, 1, 1]
000000 ce 6d 2b c0 3c da 8b bf 9e 5d e3 bf 1e e5 e6 bf
       -2.678577 -1.0925975 -1.7762945 -1.8038671
000010 43 b9 8d be 8f 9a 75 bf 87 5a 1d bf 82 f8 cd bf
       -0.27680406 -0.9593896 -0.6146626 -1.6091464
000020 66 c6 f9 bf 6b dc f1 bf 73 9d c3 bf 51 ff 14 c0
       -1.9513671 -1.8895391 -1.5282425 -2.3280833
000030 0a ea b7 bf c6 92 0c c0 d7 88 14 c0 ed a5 b8 bf
       -1.4368298 -2.1964583 -2.320852 -1.4425637
000040 a2 9e 11 c0 7f 3f 0b c0 8d dd fd bf d5 f5 b8 bf
       -2.2753072 -2.1757505 -1.9833237 -1.4450022
000050 87 9e 16 c0 7f 64 b3 be fd 80 79 bf 8b 09 16 c0
       -2.3534257 -0.3503761 -0.97462445 -2.3443325
000060 12 ba 68 bf
       -0.9090892

hgru_unit.mix_bias f4 [1, 25, 1, 1]
000000 d6 c6 e7 3f f7 d4 83 3f 70 04 f0 3e d7 f1 4c 3f
       1.8107555 1.0299367 0.46878386 0.8005652
000010 b0 bb b1 bd b0 6b 57 3e 34 f8 7a be af bd c8 3f
       -0.08678377 0.21037173 -0.24508744 1.5682887
000020 4c 92 9c 3f 1b 81 cc 3f 96 b8 3f 3e 5a 2e ba 3f
       1.2232146 1.59769 0.18722758 1.4545395
000030 e4 0e 81 3f 30 e5 d5 3f 3c 7e 01 40 38 97 68 3f
       1.0082669 1.6710567 2.0233297 0.9085574
000040 42 8c ba 3f 3e 08 b0 3f 18 a0 15 40 c5 45 91 3f
       1.4574053 1.3752515 2.3378963 1.1349417
000050 b9 05 09 40 06 b7 d0 3e 5c b3 20 3f e4 69 e8 3f
       2.1409743 0.40764636 0.6277368 1.8157315
000060 0c a8 fb 3f
       1.9660659

hgru_unit.w_gate f4 [25, 25, 15, 15]
000000 24 ae c9 3b 89 d0 8b 3d ac b5 41 3d 18 56 08 3e
       0.0061547924 0.06826884 0.047292396 0.13314092
000010 38 b3 14 3d fe c2 ab bd 04 04 26 be 24 a8 20 be
       0.03630373 -0.08386801 -0.1621247 -0.1568914
000020 3b 66 44 be f1 cb bc be 12 ed bb be fa 17 7d be
       -0.19179623 -0.36874345 -0.36704308 -0.24716178
000030 bd 5e 59 be f8 ce 0b be 52 4e 0d 3e 06 26 05 be
       -0.21227546 -0.13653171 0.13799408 -0.13002786
000040 22 8f 83 bc 13 4d 7a 3c 51 a3 19 3d ff 7a 35 3d
       -0.016059462 0.015277165 0.037509266 0.04430675
000050 a3 be 80 3c f2 ab cb 3c 4e 2e f7 bd 83 46 4e be
       0.015715903 0.024862263 -0.12069379 -0.20144086
000060 fc d1 8f be bb dd a3 be 4a ff bc be 63 14 3d be
       -0.28089893 -0.32005104 -0.3691352 -0.18464808
000070 a2 0a 69 3d 40 65 07 3e 33 82 09 be 4b ea 38 be
       0.056894906 0.13222218 -0.13428573 -0.18058126
000080 8d a3 9d bd 54 0d 4c bc 8e 38 09 3e c7 b9 47 3e
       -0.076972105 -0.01245435 0.1340048 0.19504462
000090 e3 e7 19 3e 95 a8 e9 ba 2a 64 da 3b ac df 41 3d
       0.15029864 -0.0017826731 0.0066647725 0.04733245
0000a0 c8 c1 b4 ba d3 0f 44 bc ae 22 89 bd 84 58 4d bd
       -0.0013790661 -0.011966663 -0.06696068 -0.050133243
0000b0 3d 6b 82 bd bd d6 f4 3c d0 49 54 3d 50 86 00 be
       -0.0636811 0.029887551 0.051828206 -0.12551236
0000c0 11 d0 2b be fe 89 d9 bd 22 5e 4a be b8 2e 4c be
       -0.1677859 -0.10622023 -0.19762471 -0.19939697
0000d0 b9 b1 46 be 7a 57 80 be b4 8c c6 be 3b 63 b1 be
       -0.19403733 -0.2506674 -0.38779223 -0.3464602
0000e0 6f 78 fe bd 57 53 8e bd cc 86 13 be 54 e4 6d bd
       -0.12425315 -0.069494896 -0.1440689 -0.05807908
0000f0 7d ab 98 bd b0 52 2e be 57 34 78 be 6c 8f 24 be
       -0.07454584 -0.1702373 -0.24238716 -0.16070336
000100 e4 29 c3 bd 67 7c 8d bd 41 b3 d4 bc 29 7b ab 3b
       -0.095294744 -0.069084935 -0.025964381 0.0052331877
000110 4d 13 f2 bd ce c5 88 be 8b f3 44 be 6a 50 03 be
       -0.118200876 -0.26713413 -0.1923353 -0.12823644
000120 27 3a bf bd 91 5f 06 bc 3f 81 eb 3c 77 f0 e3 3d
       -0.093372636 -0.008201496 0.028748153 0.111298494
000130 0d 2a 75 3d b9 35 b0 3d 70 18 af 3d 69 9a 84 bd
       0.059854556 0.08603997 0.08549583 -0.06474764
000140 49 39 4d be cc 23 4f be c0 1f 2f be 07 81 8b be
       -0.20041384 -0.20228499 -0.17101955 -0.27246878
000150 61 ab ae be 32 6b 7f be 5e ea 9b be f2 86 85 be
       -0.34115127 -0.24943236 -0.30452245 -0.26079518
000160 64 30 27 be db e2 08 be d3 e2 99 3d c2 c9 a6 3d
       -0.16327053 -0.13367788 0.075139664 0.08143951
000170 eb 81 1e 3d b0 c6 cb bd 3a 39 7d be d5 10 7f be
       0.03869812 -0.09950006 -0.24728861 -0.24908765
000180 5a e0 21 be fb ae d2 3c 2e 9e 73 bc ff 06 bf bd
       -0.1580824 0.025718203 -0.014869256 -0.09327506
000190 fc e8 71 be 6f ab a5 be 35 9b 52 be 06 5e c6 3b
       -0.23624033 -0.32357356 -0.2056702 0.006053689
0001a0 38 09 4c 3d bd 03 ec 3d d0 e6 26 3e 42 8f df 3d
       0.04981348 0.115241505 0.16298985 0.10915996
0001b0 61 ec 38 bd f9 8d 0d be 58 d2 6c be 68 3b 8a be
       -0.045147303 -0.1382369 -0.23127115 -0.26998448
0001c0 d6 2b 27 be b4 4f 52 be a2 7a 67 be be a8 a0 be
       -0.16325316 -0.20538217 -0.22605374 -0.3137874
0001d0 c7 c0 a2 be 1e 14 5a be 20 a1 65 bd bb b1 04 3c
       -0.31787702 -0.21296737 -0.056061864 0.008099015
0001e0 3f 78 c4 3c c3 f7 82 bb 59 6c 37 3d 04 6f 93 3d
       0.023983119 -0.0039968207 0.044781063 0.07198909
0001f0 e4 8e a6 bd 40 eb 84 bd 6b a8 b5 bd 86 ce 8d bc
       -0.08132723 -0.06490183 -0.08870014 -0.017310392
000200 85 e6 06 be 70 46 89 be eb 19 71 be b4 70 41 be
       -0.13173874 -0.26811552 -0.23545043 -0.18890649
000210 77 31 1d be 68 92 fe bd 95 bd 59 bd 36 1b 81 bd
       -0.153509 -0.124302685 -0.053159315 -0.06304018
000220 b0 8e 33 be 8d 9a 8a be 5d 98 8b be 0d 8c b0 be
       -0.175349 -0.27071038 -0.2726468 -0.3448185
000230 5b 34 cb be ea 18 de be cf ef b5 be cb 23 d0 be
       -0.39688382 -0.43378383 -0.35534522 -0.40652308
000240 ae 36 c7 be 22 eb 43 be 9f 3d d1 bd 3d 68 42 bd
       -0.38908905 -0.19132665 -0.102168314 -0.04746269
000250 51 5d 1f bd db 0c 15 3d 66 39 a7 be f7 aa 3b be
       -0.038907353 0.036389213 -0.3266098 -0.18326937
000260 f7 d2 53 bd 51 56 19 bd 1c 56 64 bd 26 96 e5 bd
       -0.051714864 -0.037435833 -0.055746183 -0.11210279
000270 55 ba 39 be b8 71 84 be a9 fa 9a be 64 24 76 be
       -0.18137486 -0.2586801 -0.30269364 -0.2403732
000280 80 64 4c be 2b fa f9 bd 00 f0 7e bd b0 23 5a 3c
       -0.19960213 -0.12205919 -0.0622406 0.013314173
000290 b9 c4 9a 3d 28 0c c3 be 14 fe e0 be ee ab 9e be
       0.07557053 -0.38095212 -0.43943846 -0.30990547
0002a0 db 16 b0 be db 66 b9 be 6e f3 9e be fd 77 bd be
       -0.34392437 -0.36211285 -0.31045097 -0.37005606
0002b0 f0 0f a1 be 8b 1c 74 be fc a1 82 be a8 8b 31 be
       -0.31457472 -0.23839013 -0.2551421 -0.17338431
0002c0 6f 73 3b be a9 f4 d2 bd 24 e8 8d bd 57 b5 a3 3d
       -0.18305753 -0.103005715 -0.06929043 0.07993572
0002d0 39 06 a8 be 6f 24 68 be 85 eb 25 be 2e b5 da bd
       -0.32817248 -0.22670148 -0.16203125 -0.106790885
0002e0 5a 2f 3d be a0 96 a5 be 84 e4 b4 be 85 9d aa be
       -0.18475094 -0.3234148 -0.35330594 -0.33323303
0002f0 ad d7 8c be 4b 92 39 be 8a de 89 bd c1 50 bc 3c
       -0.27508298 -0.18122213 -0.06731899 0.022987725
000300 1d 4f 95 bb e2 92 0b 3e 83 39 4e 3e 13 32 97 be
       -0.00455655 0.1363025 0.20139126 -0.2953039
000310 b9 76 ae be 47 44 a2 be 92 c5 cb be 76 e8 c3 be
       -0.34074953 -0.31692716 -0.39799172 -0.3826329
000320 23 73 87 be 00 80 64 be d0 9b 78 be 20 01 1f be
       -0.2645503 -0.22314453 -0.24278188 -0.15527773
000330 56 28 c6 bd 7f 01 09 bd 60 7a af 3c c2 c4 e7 3d
       -0.09675662 -0.033448692 0.021420658 0.113168254
000340 29 e8 14 3e 0a cd 87 3e 41 f2 9f 3c bb 90 d0 bd
       0.14541687 0.2652362 0.019524695 -0.10183855
000350 27 3f 90 be 0d a4 c4 be 01 2b 9c be 6a 87 88 be
       -0.2817318 -0.3840641 -0.3050156 -0.26665813
000360 ba bb 44 be cb dd ce bd 5a 0d ef bd 4f d1 cc bc
       -0.19212237 -0.101008974 -0.116724685 -0.02500215
000370 56 87 cc 3d 09 26 72 3e e4 28 a1 3e 9e 1a c6 3e
       0.09986751 0.23647322 0.3147651 0.38692182
000380 43 da f4 3e 83 cf dc be 25 bf da be ef 50 e9 be
       0.4782277 -0.4312707 -0.42723957 -0.4556956
000390 7c 0c d2 be 41 7b a1 be 93 92 1f be 72 c6 0c be
       -0.4102515 -0.31539348 -0.15583257 -0.13747576
0003a0 1d 27 4d be 6c 3c 5b be 6a e6 07 be 95 2f 19 be
       -0.20034452 -0.21409768 -0.1327149 -0.14959557
0003b0 b1 19 f9 bd 51 75 e7 bd 90 41 1a bb b7 0a b7 3d
       -0.12163103 -0.11301673 -0.0023537613 0.089375906
0003c0 8a 31 04 bf 0a a1 d4 be fe 5a ad be ce db 77 be
       -0.5163809 -0.41529113 -0.33858484 -0.24204943
0003d0 13 3f 15 be f5 ce 30 be 51 58 12 be 23 07 3a be
       -0.14574842 -0.17266448 -0.14291503 -0.18166785
0003e0 63 ad 5e be 02 d8 35 be d9 ea c7 bd 00 dc 29 bd
       -0.2174583 -0.17758182 -0.097615905 -0.041469574
0003f0 cd 33 6b bc 1c b8 e2 3d 05 e3 23 3e cc 5d ed be
       -0.014355612 0.11070272 0.1600457 -0.46360624

hgru_unit.alpha f4 [1, 25, 1, 1]
000000 8d 4f 6c bf 04 5c 2d 3d fb d0 3f bf a2 0f a4 be
       -0.92308885 0.04232408 -0.74928254 -0.32043177
000010 8a 16 37 3e 40 c4 2f 3f 30 7e a8 be dd 7b 9f 3c
       0.17879692 0.6865883 -0.32908773 0.019468242
000020 98 ad 8b be 25 99 c2 be 59 53 80 3f 4b 7a 3d bf
       -0.2728088 -0.38007465 1.0025436 -0.7401473
000030 71 12 38 3f ce e3 66 3e 15 d3 89 3e 8b 9d 35 bd
       0.7190314 0.22547838 0.26918855 -0.044339698
000040 02 97 0e 3f a0 c2 94 be c4 eb 07 bf 5d d6 2d be
       0.5569917 -0.29054737 -0.53094125 -0.16976304
000050 fe 8a 2a bf 54 db cb 3e d2 63 c5 3d e9 5f 23 ba
       -0.66618335 0.39815772 0.0963818 -0.0006232248
000060 5a 79 ec 3e
       0.46186334

hgru_unit.mu f4 [1, 25, 1, 1]
000000 f1 4d e9 3d 25 b5 22 be 15 b7 1c be 50 83 15 3e
       0.11391819 -0.15889414 -0.15304215 0.14600873
000010 60 85 d5 3d da df f3 bd 27 ee 8c 3e 2d 82 af 3d
       0.1042583 -0.11907931 0.27525446 0.08569751
000020 53 ef 89 bd e6 b6 58 3e 5e db 24 be f2 e6 c0 3d
       -0.067351006 0.2116352 -0.16099307 0.09419049
000030 1a 29 d5 bc f4 3f 5d 3e 5d 97 6f 3e bb 66 17 be
       -0.026020575 0.21606427 0.23397584 -0.14785282
000040 87 0b f7 bd f0 94 d1 bd 2a 08 ae 3d 43 18 16 be
       -0.120627455 -0.10233486 0.08497651 -0.14657693
000050 41 3c 28 3e a8 e3 dc bd 42 75 99 3c 45 31 a7 bc
       0.16429235 -0.107856095 0.01873267 -0.020409236
000060 ad fe 10 3f
       0.56638604

hgru_unit.gamma f4 [1, 25, 1, 1]
000000 fc e7 ee bd c4 0e e1 be fd b3 0c bd 7d b9 9d be
       -0.11665341 -0.43956578 -0.034351338 -0.3080558
000010 ef f2 4f 3c 99 4a 6f 3d 5f 42 73 bc 15 1e f7 3d
       0.012692197 0.05842075 -0.014847367 0.120662846
000020 9a 3e 8b be 81 53 6d be 70 25 1b be e0 a1 78 3e
       -0.271962 -0.23176385 -0.15151 0.242805
000030 f9 91 68 be a5 8d de be de a9 cc bd 99 b1 7e be
       -0.22711934 -0.4346744 -0.09993337 -0.24872436
000040 b2 18 8c 3d 2f 0f eb 3d 4c 3c 84 bd ae b7 5a be
       0.06840648 0.114775054 -0.06456813 -0.2135913
000050 68 f1 81 be ac 9a 45 bd eb d9 41 3e 9e a3 56 3e
       -0.2537949 -0.04824321 0.18930785 0.20960853
000060 7d 13 15 3d
       0.03639554

hgru_unit.kappa f4 [1, 25, 1, 1]
000000 ae 6a 38 3e fb 7e ca bd da 8a 70 3c 88 0d da 3e
       0.18009445 -0.09887501 0.014681542 0.4258845
000010 0e e2 a6 be be 5e 4b 3e 4b 1f 61 3e 1f 49 7d bc
       -0.3259434 0.1986036 0.21984594 -0.015459328
000020 34 e4 0e 3f 8d a5 0b 3f 2e 66 92 be 56 6a c4 3e
       0.5581696 0.54549485 -0.28593582 0.38362378
000030 35 30 0c 3f 9c 7c 09 3e 11 69 5d be f0 bf 13 be
       0.5476106 0.13426441 -0.21622111 -0.14428687
000040 e0 42 bd 3e 33 09 1e bd a8 01 e4 be 9d 98 d1 3e
       0.36965084 -0.03858299 -0.44532514 0.40936747
000050 85 46 da 3d 18 62 27 3d 6c 0d 01 3f b2 07 1b 3e
       0.10657982 0.040865034 0.50411105 0.15139654
000060 48 20 6b bc
       -0.014350958

hgru_unit.omega f4 [1, 25, 1, 1]
000000 94 a4 20 bd 72 a8 1c 3f 1b 0b d5 be c0 31 c1 be
       -0.039219454 0.6119453 -0.41610035 -0.3773327
000010 f7 a0 f4 be e7 20 29 3d 27 f5 1a be e9 6a 6e bd
       -0.47779056 0.041291144 -0.1513258 -0.058207426
000020 80 7a 48 bc 6f f5 04 3e f0 ab c0 bc be db bc 3e
       -0.0122362375 0.1298425 -0.023519486 0.368864
000030 28 65 97 3e bc 27 a1 be 31 de 30 bd 69 c2 8b 3d
       0.29569364 -0.31475627 -0.04318065 0.0682419
000040 03 62 10 be 75 1c 3d be ab 33 cf bd 3e 1e 1f bc
       -0.14099889 -0.18467887 -0.10117277 -0.0097118
000050 60 ae 82 3d d9 0a 31 3f fe bb aa 3e d8 b1 17 be
       0.06380916 0.6915718 0.33346552 -0.14813936
000060 4c 20 05 be
       -0.13000602

hgru_unit.n f4 [1, 8]
000000 96 11 b1 bd 76 95 e5 bd 3a a7 f6 bd 3c 0a 23 be
       -0.086459324 -0.11210148 -0.12043615 -0.15921873
000010 b0 b8 14 be 53 5c 00 be 7f ad 2e be 6e 30 e5 bc
       -0.14523578 -0.12535219 -0.17058371 -0.027977195

hgru_unit.gain_kernel.weight f4 [25, 25, 1, 1]
000000 ee ee 77 3e 23 02 23 3f 49 83 af be 31 4c 1d bf
       0.24212238 0.63675135 -0.3427985 -0.61444384
000010 61 8d 86 3e 6f 15 a5 be 18 e7 0d 3e 51 6a da be
       0.2627974 -0.32242915 0.13857687 -0.42659238
000020 80 64 cc 3e 33 7b f0 be fe 34 7d 3e 00 14 69 bb
       0.39920425 -0.46968994 0.24727246 -0.00355649
000030 3f 18 65 bf 0e 9d 58 3f e9 03 4d 3e fc a3 3f be
       -0.8949012 0.84614646 0.20021023 -0.18714899
000040 07 d3 06 3e 0f 46 8d be c0 17 85 be e9 31 32 be
       0.13166438 -0.27592513 -0.25994682 -0.17401852
000050 6d e7 bc 3e 65 44 be 3e f7 12 38 3f 7e fb da be
       0.36895314 0.37161556 0.7190394 -0.42769998
000060 db 95 31 3f a4 99 b9 3e 7d 53 d0 3c 8e 48 88 3f
       0.69369286 0.3625003 0.025430435 1.0647142
000070 1f 2f 2c be 4d ff 46 be d2 f2 08 3e 2d 61 aa 3e
       -0.1681485 -0.19433327 0.13373879 0.33277264
000080 82 05 21 bf 8b a4 c2 3d 95 21 73 be 60 89 02 3f
       -0.6289903 0.0950404 -0.2374328 0.5099087
000090 5c 19 02 3f 1f 66 8f 3b 49 90 ec 3e 8b 4a 54 3d
       0.50819945 0.0043761875 0.4620383 0.051828902
0000a0 b6 f8 08 3f 53 82 10 bf f3 d9 b9 bd 15 b7 4f be
       0.535045 -0.5644886 -0.09074774 -0.20284684
0000b0 64 bc 77 be 22 0a a5 be 2e 0d 2f bb ed 44 40 3f
       -0.24192959 -0.32234293 -0.0026710737 0.7510517
0000c0 20 ae b6 3e 3b fd 2d 3e 0f 36 8e 3c 49 20 2c 3f
       0.35679722 0.16991131 0.017359762 0.67236763
0000d0 e8 1b 25 3f 67 a9 37 bf a3 64 81 be 4a 37 a2 bf
       0.64495707 -0.7174286 -0.25272092 -1.2673123
0000e0 ef 8c 98 3e d3 2b c9 3d ba c1 f1 3c fb 0d ad 3d
       0.29795024 0.09822812 0.029511321 0.08449932
0000f0 f4 28 80 be 85 bc 62 be 6b 57 ff be 5e f5 c3 3e
       -0.25031245 -0.22142227 -0.49871382 0.38273138
000100 28 1c d7 be d7 53 b7 3e e0 f3 81 3e 27 0d 7e be
       -0.4201367 0.35806152 0.25381374 -0.24809705
000110 ec ec da 3d dc c8 12 bf ba 02 1d 3f fb cc cf 3e
       0.106897205 -0.5733774 0.61332285 0.40586075
000120 73 54 f5 3e fc 63 18 bf ac 1a d5 be 47 c7 e2 3e
       0.47915992 -0.59527564 -0.41621912 0.44292662
000130 26 7a 8e 3f 1a de cd bd f8 44 e4 be 9c 7a a2 bd
       1.1131027 -0.10052128 -0.4458387 -0.07933542
000140 31 c1 b7 3c 10 a5 b5 3e 7e 59 17 bf 5c c7 b5 3e
       0.022430988 0.35477495 -0.5912093 0.35503662
000150 a0 fd 3c bf 7d 79 84 be ba 5a 99 bd bf 06 d0 be
       -0.738245 -0.25873938 -0.07488008 -0.40630147
000160 45 fb 85 3e e1 ce 07 be 05 26 f7 bd 57 f6 9d 3d
       0.26168266 -0.13262512 -0.120677985 0.07713001
000170 30 34 9d 3e c8 99 2d bf b2 88 87 bf ef 1e 2b bf
       0.30703878 -0.67812777 -1.0588591 -0.66844076
000180 3c cc 10 be 7c df 53 3f 9d d3 f5 bd 09 47 65 bf
       -0.14140409 0.82762885 -0.12003253 -0.89561516
000190 13 0d 27 3f 75 38 5a bb 3d cc 63 bd 6d e8 ac 3e
       0.65254325 -0.0033297811 -0.0556147 0.33771077
0001a0 17 56 77 be 01 f9 01 bf 88 8f f8 be a9 80 d5 3e
       -0.24153934 -0.50770575 -0.48547006 0.41699722
0001b0 d5 61 2e 3d 46 14 99 3e 8b e2 f9 be 0b c3 01 bf
       0.04257377 0.2989828 -0.4880565 -0.50688237
0001c0 28 be 58 bf 95 e7 de 3e 30 46 32 3f 32 00 a3 3e
       -0.84665155 0.43536058 0.6963835 0.31836087
0001d0 b9 35 0c bf 80 46 2a 3f 6d 53 57 3e 18 16 38 3e
       -0.54769474 0.66513824 0.21027918 0.17977178
0001e0 2a b7 b5 be 0b 46 d9 3e 02 07 07 bf e1 fd 60 3e
       -0.35491306 0.4243625 -0.5274507 0.21971847
0001f0 d2 7b a5 3e 58 45 2f bf 61 b2 7f be 24 27 da be
       0.3232103 -0.68465185 -0.2497039 -0.42607987
000200 01 6a 0f bd 83 7c 73 bf cd fa 80 bf 73 c7 e9 3c
       -0.035013203 -0.95111865 -1.0076538 0.028537488
000210 9f 11 4c 3f 8f 64 84 3f bf c9 11 bf 0d 9c e0 3c
       0.7971439 1.0343188 -0.56948465 0.02741816
000220 5f 93 be be 9c 7e 06 bf 70 65 ba 3d 61 31 73 3f
       -0.3722181 -0.5253694 0.09101379 0.9499722
000230 01 76 94 3e a6 c6 90 3d 87 71 b4 be 3a a4 e0 bd
       0.2899628 0.07069139 -0.35242864 -0.10968824
000240 a8 de 71 be 5c b3 91 be d1 61 d7 3e ba bc 0a be
       -0.23620093 -0.28457153 0.42066815 -0.13548556
000250 72 16 1d 3f 7e 04 73 3e 07 c2 5c be eb 0d 26 3f
       0.61362374 0.23732182 -0.2155839 0.6486499
000260 9d 1c 2e bf a5 50 84 be 14 29 dd 3e 42 86 6c bf
       -0.6801241 -0.25842777 0.43195403 -0.9239236
000270 cd ba 16 be d5 8c 11 bf 5a 02 b6 3d 85 91 05 bf
       -0.14719696 -0.5685552 0.08887167 -0.5217517
000280 ab a1 9f 3e f8 bb 1b 3e ae f5 b2 bf 82 db 67 3f
       0.3117803 0.15208423 -1.3981225 0.9056932
000290 63 61 e0 3e 15 8e e3 be 5f 43 81 be e3 da 56 3e
       0.438243 -0.44444337 -0.25246713 0.20981936
0002a0 7d 58 f8 3d ce b8 0d bf 1c 9a 88 3d 00 12 60 3f
       0.12126253 -0.55360115 0.06670019 0.87527466
0002b0 6a fa a4 3e ff de 00 bd 5e 86 80 3e dd a4 d7 3e
       0.322223 -0.031462666 0.25102514 0.42117968
0002c0 c2 8b 92 3c fb de a5 3d fb 77 17 3f e3 4b f0 3e
       0.017888907 0.08099171 0.5916745 0.46932897
0002d0 d5 2f 28 3d 0f 62 10 bf fd 62 fd be 40 7f 8d 3e
       0.04106124 -0.56399626 -0.49489585 0.27636147
0002e0 8f 93 e9 bf bd 36 3c 3e 94 bf 0d bf be 7f bd be
       -1.8248156 0.18380256 -0.5537045 -0.37011522
0002f0 a1 54 24 3e 9c 50 ea 3e 43 64 08 be db 59 55 bf
       0.16047908 0.45764625 -0.13319497 -0.83340234
000300 5d 7f 56 bf 3e f4 0a bf 5e 6a ed be b1 5a 5b 3e
       -0.8378809 -0.54278934 -0.46370214 0.21421315
000310 a8 7a b1 be 1d 08 0c 3f 25 17 98 3e ee 16 c0 3e
       -0.34663892 0.5469988 0.29705158 0.37517494
000320 cd dd a5 3e 8c e2 40 3d e3 15 97 3e 67 e0 85 bf
       0.32395783 0.047091052 0.29508886 -1.0459107
000330 f7 fd 8c be 02 99 1c 3f 09 ec 11 3e 5e da c3 be
       -0.2753751 0.6117097 0.14250197 -0.38252538
000340 7f e9 a1 be 03 8e 23 3f 2e cf 55 bf da 89 41 3e
       -0.31623456 0.6388857 -0.83519256 0.18900242
000350 cb 09 88 bc f4 99 18 3e 7c dd 20 bf 9c 72 85 3e
       -0.016606232 0.14902478 -0.6283796 0.26064003
000360 ea 13 04 be da 0d b1 3e bd cc 24 3f 98 a2 54 be
       -0.12898222 0.3458088 0.64374906 -0.2076515
000370 22 01 c2 3d a7 0e 7e 3e 24 ca 44 3f d4 6a 91 be
       0.09472872 0.24810277 0.7687094 -0.28401816
000380 1b a5 e1 3e 11 bd 76 3d c2 5a 1f 3f 49 8d e5 3e
       0.44071278 0.0602389 0.6224786 0.44834355
000390 e3 d4 a1 3b 24 51 3f be 88 10 64 3e bc 5b a7 be
       0.004938708 -0.18683296 0.22271931 -0.32687175
0003a0 48 3f 86 3d 53 84 d3 bc dd 8d 52 be 4c 3c ac 3e
       0.06555039 -0.025819933 -0.20561929 0.33639753
0003b0 9d 02 b3 3e db a6 5e be 13 de 53 3f c4 a1 88 be
       0.3496293 -0.21743338 0.82760733 -0.26685917
0003c0 c1 51 2e 3e b6 9e e9 be 69 65 12 bf ac 0b 88 be
       0.17023374 -0.456289 -0.5718599 -0.26571405
0003d0 32 c0 91 3c 19 43 5a bf 5a cd 3c bf 32 13 04 3f
       0.017791841 -0.8525863 -0.7375084 0.5159179
0003e0 3e 64 ac bd ce a3 8b bf bc 05 7a bf 85 06 f5 3e
       -0.08417557 -1.0909364 -0.97665 0.47856537
0003f0 69 d9 4a bf 74 d2 89 be ad 64 c7 bd ba 40 9b be
       -0.7923799 -0.26918375 -0.09735999 -0.3032282

hgru_unit.mix_kernel.weight f4 [25, 25, 1, 1]
000000 e3 4b fe be b4 b2 9f be 2c 95 f1 3c c8 3e 7b be
       -0.49667272 -0.31191027 0.029490076 -0.24535668
000010 2e 27 9e 3d ad e9 a4 3e 86 7a ee 3d 56 0d ce 3e
       0.07722317 0.3220953 0.11644463 0.4024455
000020 ad 97 3e 3f 8d b7 34 3f c0 54 9b bd 44 2e 48 3e
       0.7445019 0.70592576 -0.07584524 0.19548899
000030 94 a0 37 bd 8c 56 35 be d5 ce 40 be 67 cc 1f be
       -0.044830874 -0.17708796 -0.188289 -0.15605317
000040 be 3f 75 be 7f 3e 4c 3e c6 9e a3 3e 9d 1b 34 be
       -0.23950097 0.19945715 0.31957072 -0.17588659
000050 58 a0 8e be a7 e0 33 be 45 48 0d 3e 90 65 38 3e
       -0.27856708 -0.17566167 0.137971 0.18007493
000060 0f 6b 44 be 48 2f 45 be 8b 5b 24 3f 36 1e 15 bd
       -0.19181465 -0.19256318 0.64202183 -0.036405765
000070 86 a4 7a be 04 8f 37 bc b0 db ff 3e 31 69 61 3e
       -0.24476823 -0.011203531 0.49972296 0.22012784
000080 5b 07 cc 3e b0 2b 0d be a3 05 66 be d5 21 59 3e
       0.39849362 -0.13786197 -0.22463088 0.21204312
000090 2a 4b cc be 10 27 87 be ca 65 dd 3e da d4 dd 3c
       -0.39901096 -0.2639699 0.4324172 0.027079035
0000a0 b4 b2 1f 3f d4 da ea 3e fe c6 4f 3f 79 64 a3 3d
       0.62382054 0.45870078 0.81163013 0.07978148
0000b0 08 8e cf bb 1d 10 d8 3d fe a2 b4 be 7c 7f f1 be
       -0.00633407 0.10549948 -0.35280603 -0.47167575
0000c0 1e d8 e9 be 06 ca 8e 3e e2 73 a2 3e 00 8b 27 bf
       -0.45672697 0.27888507 0.31729037 -0.6544647
0000d0 9a cc aa be 5e 75 17 be 46 cf 72 be dd b3 04 bf
       -0.33359224 -0.14790866 -0.23711881 -0.5183695
0000e0 7a a0 6c 3d 7c cd fa bd 38 9c 98 3e 0c 97 79 bf
       0.05777023 -0.12246224 0.29806685 -0.97496104
0000f0 eb 38 01 3d 43 a1 fa be 75 f9 c0 3d b0 fb 44 be
       0.03154842 -0.48951158 0.0942258 -0.19236636
000100 ea eb 20 bd 90 12 9d bc 81 6a 75 be de b1 b8 be
       -0.039287485 -0.01917389 -0.2396641 -0.36073202
000110 17 57 90 be 19 15 bd 3d 44 71 c3 3e 20 c8 ce be
       -0.28191444 0.0923254 0.38172352 -0.40387058
000120 f6 24 f9 bd ff 74 1d be 22 75 15 be 62 10 8d 3e
       -0.12165253 -0.15376662 -0.14595464 0.27551562
000130 80 47 e3 3e b5 a1 17 3d 73 e4 07 3f d8 87 33 bb
       0.44390488 0.03701945 0.5308296 -0.0027394202
000140 a2 7e fe 3d 0a 97 18 be 18 17 3d be f5 66 25 be
       0.12426497 -0.14901367 -0.18465841 -0.16152556
000150 44 14 06 3e d5 c5 d6 bd 54 c6 5f 3d d9 7d 36 3d
       0.13093668 -0.10486952 0.0546325 0.04455361
000160 bb 0f 5d be 9d 75 d9 bd 44 7d 98 3e 4d 80 fb 3e
       -0.21588032 -0.10618136 0.2978307 0.49121323
000170 4c 77 92 3e 85 c9 39 be 5e 4a 49 be 66 d1 fa 3e
       0.2860664 -0.1814328 -0.19657275 0.48987883
000180 22 6e c2 3c 0e 5e d1 3e 7d e1 c5 be e5 e6 df 3e
       0.023734156 0.4089207 -0.38648596 0.43730846
000190 ed 63 24 bf 1b 0b 5e be 7f e4 20 3e 29 9a 7a bf
       -0.64214975 -0.21683924 0.15712164 -0.9789148
0001a0 98 14 20 3f f0 7c f2 3e ba 36 27 3f 0e d7 87 be
       0.62531424 0.47360945 0.6531788 -0.2653126
0001b0 ac fc 0c 3e e1 70 17 bd ab 11 16 3f d0 76 3c be
       0.13768262 -0.036972884 0.5862071 -0.18404698
0001c0 e2 a2 51 bc 38 36 86 bd 31 bc 36 bf dc c5 18 3e
       -0.012795182 -0.0655331 -0.7138091 0.14919227
0001d0 18 c0 57 be 88 45 18 3f b7 c9 29 be 47 fb c3 3e
       -0.21069372 0.59481096 -0.16580854 0.38277647
0001e0 0b b1 15 3e fd 7c c8 3d d5 ff 84 bd 38 c8 9e 3e
       0.14618318 0.097894646 -0.064941086 0.3101213
0001f0 e3 df 18 be bc 40 9b bd 4d 12 fe 3d 2e ef 77 3e
       -0.14929156 -0.075807065 0.12405834 0.24212334
000200 4d 79 0f bf db 49 b2 3e 8d 26 de 3e e9 79 26 3f
       -0.56044465 0.34821972 0.43388787 0.6502977
000210 25 cf 93 3e 06 e3 53 3f 8d 6a c8 3d d6 f2 29 3f
       0.28868976 0.82768285 0.09785948 0.66386163
000220 e8 a5 81 3e b1 47 ec 3e 5a 99 35 3f 9f 17 2f 3f
       0.2532189 0.46148446 0.7093712 0.6839542
000230 e5 54 d5 be e9 9a b4 3e 4e ff 5a 3b fb 85 78 3e
       -0.41666332 0.35274437 0.0033416334 0.2426986
000240 4d 45 ce 3e 52 9b bd 3d df e9 04 3d 87 4e 29 3f
       0.40287247 0.092581406 0.0324496 0.6613545
000250 79 01 2a be f3 1d 54 3f eb b7 8c bd eb 93 80 3b
       -0.16602124 0.828582 -0.06871017 0.003923883
000260 b5 bf 9f be d8 03 40 be 13 3d a4 3d 55 7b 1b 3f
       -0.31200948 -0.18751466 0.080194615 0.60735065
000270 7e 6f 65 3e 94 ed 90 3e 21 c8 ce 3d 91 d5 2f 3e
       0.22405812 0.28306258 0.10096765 0.17171313
000280 33 1f 9f 3d d1 82 2a 3e b3 b7 da bd 75 6e 37 3e
       0.07769623 0.16651465 -0.10679569 0.1791323
000290 f8 b7 4d be 88 2b c3 3e f0 d1 36 3f 80 b2 94 bc
       -0.2008971 0.3811915 0.7141409 -0.018151522
0002a0 a7 7f 73 be 92 aa 0b 3e 7f 00 5e be 01 0f 2d bd
       -0.23779164 0.13639286 -0.21679877 -0.042250637
0002b0 ed f2 7a 3e e0 3c d0 be 52 b8 31 bf e6 bb b8 be
       0.24506731 -0.40671444 -0.69421875 -0.36080855
0002c0 f8 77 4f 3e ab 4d 30 3e 82 40 35 be c6 45 0c 3f
       0.20260608 0.17217128 -0.17700389 0.54793966
0002d0 d2 be f9 3e b5 80 8c 3e c8 73 ce bd d2 0d e3 3d
       0.48778397 0.27441946 -0.10080677 0.110866204
0002e0 20 2f af 3e 2d e8 f9 3d 41 81 5a 3e 42 fd e8 3c
       0.3421564 0.12202487 0.21338369 0.028441075
0002f0 db be d5 3e 83 8a f1 be b7 21 b9 be b7 e8 cd 3e
       0.41747174 -0.4717599 -0.36158535 0.4021661
000300 1f c5 29 be 0b f9 1c 3e d3 87 0b 3e b3 8d b0 be
       -0.16579102 0.15329377 0.13626032 -0.34483108
000310 05 73 5c bd 61 25 30 3d 55 82 0b 3e 78 99 18 3f
       -0.05382063 0.043004397 0.13623936 0.59609175
000320 95 d9 40 3e 7a 8f 31 3e 33 52 36 3e 76 28 a1 3e
       0.18833001 0.17339888 0.17804794 0.31476182
000330 b6 f5 50 3e 45 e3 bf bd 80 75 f6 3d f5 2b 84 3c
       0.20406231 -0.0936952 0.1203413 0.016134242
000340 3d 07 c9 bd 7a 0e 22 3d df d6 d3 be 01 7e 7e be
       -0.09815834 0.039564587 -0.4137487 -0.24852754
000350 5e 6d 60 3e 4b bc e0 be c4 64 c5 bd 32 c8 a1 3d
       0.2191672 -0.43893656 -0.0963836 0.07899512
000360 80 f9 82 bd bb d2 da be f6 8d ca be 2a eb 97 be
       -0.063952446 -0.427389 -0.39561433 -0.29671603
000370 a6 e2 91 be a4 d9 2c bf 52 75 28 bd 32 9a 82 be
       -0.28493232 -0.67519593 -0.04112751 -0.25508267
000380 73 29 31 3e b4 a0 6f bd 45 bd 06 3e e5 87 ff be
       0.17300968 -0.058502868 0.13158138 -0.49908367
000390 c2 cb 5c 3d 29 27 aa be ac 46 07 be f3 5b a6 3e
       0.053905256 -0.33233002 -0.13210553 0.32492027
0003a0 d4 55 08 be 4a df 4d be c7 dc 6d 3e dd ea 6e be
       -0.13313991 -0.2010471 0.23228751 -0.2333178
0003b0 4c 30 78 3e b1 60 59 be 16 d7 19 3e d8 8c 50 bc
       0.24237174 -0.21228291 0.15023455 -0.012728892
0003c0 6a aa 0a be 95 9d 1c bd cf 37 0f bf 13 04 0f 3d
       -0.1354157 -0.03823622 -0.5594453 0.034915995
0003d0 65 70 8c 3e bd ba 50 be 42 40 69 bd f9 29 6d 3e
       0.274295 -0.20383735 -0.056946047 0.23160543
0003e0 a0 1f 07 be 4d b3 43 3e 5c 78 c7 be 22 72 65 3e
       -0.13195658 0.19111367 -0.38959014 0.2240682
0003f0 41 3f c1 be c6 97 6e be a4 b1 0b 3f ff 04 2b 3e
       -0.3774357 -0.23300084 0.54567933 0.16701125

conv_readout.weight f4 [2, 25, 1, 1]
000000 e0 b6 f9 3d 57 e8 11 3c 14 c3 74 bd 36 fe 43 be
       0.12193084 0.008905492 -0.059756353 -0.19139943
000010 8d 6d 5d bd 6b 10 17 be 70 f2 51 3e 62 e8 fa 3b
       -0.054059554 -0.14752357 0.20502639 0.0076570967
000020 89 2f d2 3e bd f2 8f be 59 72 be bd 7f dd 88 bd
       0.4105189 -0.28114882 -0.09299154 -0.06682872
000030 69 4d 4c 3d 17 f1 6e be 46 a7 1a be a6 ad 0a 3f
       0.04987851 -0.23334156 -0.15102872 0.54171216
000040 de 0f 02 bf 3c b0 92 3d 53 f9 49 be dc eb c8 bd
       -0.5080546 0.0716252 -0.19724016 -0.098106116
000050 4c f0 5a 3b 5a 42 37 bd fc c2 5d be 51 79 c4 be
       0.0033407388 -0.044741012 -0.21656412 -0.38373807
000060 24 76 69 bd ae bc 7d be 76 cb ea 3d 60 8c 32 be
       -0.056997433 -0.24779007 0.11464588 -0.17436361
000070 2b ce 01 3e da 41 2e 3b 84 8a 6b be 14 c0 5d 3e
       0.12676303 0.0026589544 -0.23002058 0.21655303
000080 4a 53 9c 3e 03 2b b3 3a 5e 94 5c be b7 cb ab be
       0.30532295 0.0013669435 -0.21540973 -0.3355386
000090 9b c0 28 be d6 70 e9 bd e0 9b 96 3d 90 eb 27 3e
       -0.16479723 -0.11398475 0.073539495 0.16398454
0000a0 87 0f 06 3f a9 93 17 be 93 26 73 be 52 27 0e 3f
       0.5236744 -0.14802422 -0.23745184 0.5552875
0000b0 59 10 dd 3d 3c fd d4 3e c0 62 89 3d d4 13 96 3d
       0.10794134 0.41599452 0.06708288 0.07328001
0000c0 d0 19 78 3c 63 0f b9 3e
       0.015142873 0.36144552

conv_readout.bias f4 [2]
000000 9e 0f 03 be 0c f9 16 bd
       -0.12798926 -0.036858603

bn2_1.weight f4 [25]
000000 ba 2f 55 3f 60 80 03 3f fb c3 11 3f c1 2a 42 3f
       0.8327595 0.5136776 0.5693967 0.7584649
000010 c4 23 fd 3e b8 26 49 3f 35 85 55 3f c5 65 63 3f
       0.4944135 0.78574705 0.8340638 0.88827163
000020 62 83 04 3f ab 8f 89 3f 1d b1 57 3f bf be 65 3e
       0.51762974 1.0746969 0.8425463 0.22436045
000030 41 19 31 3f eb b1 43 3f 9d 46 56 3f 82 2e 89 3f
       0.6917916 0.76443356 0.837015 1.0717318
000040 36 26 7b 3f 23 b7 06 3f ac 9b 64 3f b1 51 2f 3f
       0.9810518 0.52623194 0.89300036 0.68484026
000050 e9 4e 88 3f 5a fa ef 3e 30 6b 06 3f d1 d8 5e 3f
       1.0649081 0.4687069 0.52507305 0.87049586
000060 c3 6e 27 3f
       0.65403384

bn2_1.bias f4 [25]
000000 92 2e e9 bd 1f a5 30 3e a3 4a e3 bd 2d 42 d4 3d
       -0.11385836 0.17250489 -0.1109822 0.103641845
000010 00 12 9d 3d 43 43 3b 3e 9b ab c1 3d cb 91 fc 3c
       0.07669449 0.18287377 0.09456559 0.030831238
000020 66 50 f9 bd 9b b1 76 3e 70 bb 0d be 95 d9 2c be
       -0.12173538 0.24091189 -0.13841033 -0.16879876
000030 82 a5 1e 3e ba ae 65 3e 62 d7 18 bd 33 25 6e be
       0.15492824 0.22429934 -0.03731478 -0.23256378
000040 bf cb 00 3e fa 87 04 be 8b 6a 16 bc 6a 48 4c be
       0.12577723 -0.12942496 -0.009180675 -0.19949499
000050 bf 58 e0 bd 9a 69 f2 bd 9a 88 b9 3d b0 63 d4 3d
       -0.10954427 -0.11836548 0.09059258 0.103705764
000060 5c 54 0b be
       -0.136064

bn2_1.running_mean f4 [25]
000000 cc c9 c5 ba 21 dd 86 bc 88 6f 81 39 09 1a 75 3c
       -0.0015090047 -0.016462864 0.00024687895 0.014959821
000010 59 9c 61 ba a7 c9 56 3b 94 a1 c7 3a 1a c1 55 3c
       -0.00086063665 0.0032774003 0.0015230649 0.013046527
000020 89 90 63 bc 38 04 99 3c 47 cb 80 3b 60 d8 8a 3c
       -0.01388944 0.01867877 0.0039304825 0.016948879
000030 4a 70 72 3c e1 92 b2 bc e0 4b 98 bb b9 3a 87 bc
       0.01479728 -0.021798553 -0.004647717 -0.016507493
000040 f8 3c 03 3b 64 4b e9 3b 58 92 70 3a 30 e8 5e 3c
       0.0020025354 0.007119583 0.00091770804 0.0136051625
000050 56 dd 21 bc 48 85 26 b9 68 7b 67 bc ac 18 5e ba
       -0.009879431 -0.00015880645 -0.014128543 -0.00084723043
000060 87 9d 0b bc
       -0.008521444

bn2_1.running_var f4 [25]
000000 6a 40 b4 38 5c 8f 2f 38 02 cb 2c 37 48 27 69 38
       8.595067e-05 4.1856765e-05 1.0299265e-05 5.5588112e-05
000010 92 fc 08 37 55 1c 95 37 f4 5e 81 36 3d ff 8c 38
       8.165038e-06 1.7775377e-05 3.8555536e-06 6.723262e-05
000020 6a 63 08 39 57 ec fc 38 6c ef 2d 38 b0 4e 03 39
       0.00013007005 0.00012060318 4.1469393e-05 0.00012522447
000030 f9 70 96 38 8d d9 3e 38 7a 6f a7 38 2c a6 45 38
       7.1736e-05 4.550214e-05 7.983945e-05 4.712322e-05
000040 0f ac 29 38 86 d1 92 38 8e 15 15 38 89 6f a4 38
       4.0452982e-05 7.000849e-05 3.5544443e-05 7.8409044e-05
000050 1f 96 33 39 03 18 90 37 79 5b 13 38 a6 bf d7 38
       0.00017126695 1.7177319e-05 3.513272e-05 0.00010287696
000060 8d a5 41 38
       4.6168967e-05

bn2_2.weight f4 [2]
000000 c3 3e 77 3f e0 7c f2 3f
       0.9658014 1.8944359

bn2_2.bias f4 [2]
000000 e7 d5 a2 bd 65 3a b8 bd
       -0.07950955 -0.08995513

bn2_2.running_mean f4 [2]
000000 d7 bb e8 3f 23 1b 1e 40
       1.8182324 2.4704063

bn2_2.running_var f4 [2]
000000 eb a4 5f 3b 5b 78 59 3e
       0.0034125398 0.21237318

fc.weight f4 [2, 2]
000000 6c 87 78 bf 60 7e c7 bf 49 81 0d bf db 85 19 3f
       -0.9708164 -1.5585442 -0.552754 0.5996987

fc.bias f4 [2]
000000 54 63 ac 3d f9 63 ac bd
       0.08417383 -0.08417506
