checkpoints/checkpoint_0_Feb-16-2021_0524_.pt (torch, 582498 bytes, 25 tensors)

conv_feature_extractor.weight f4 [25, 1, 7, 7]
0	0x3d4a27a4	0.04935421
1	0x3e5bd630	0.21468425
2	0x3eb0bf10	0.3452077
3	0x3ee572e3	0.44814214
4	0x3eb2c035	0.34912267
5	0x3e225c36	0.15855488
6	0xbd76a866	-0.06021919
7	0x3db3aa75	0.087727465
8	0xbe1f3002	-0.15545657
9	0xbe8f04ad	-0.27933255
10	0xbec65463	-0.38736257
11	0xbe81f0f4	-0.25379145
12	0x3dca5869	0.09880144
13	0x3eb6aa37	0.3567674
14	0xbe615ca9	-0.22008003
15	0x3cc9214f	0.024552016
16	0x3d7b97c4	0.06142403
17	0xbd143417	-0.03618249
18	0xbe056936	-0.13028416
19	0xbe506f9a	-0.20355073
20	0xbe0d3f39	-0.13793649
21	0x3be6ed26	0.0070473133
22	0x3e88f13b	0.26746544
23	0x3ee978f3	0.4560009
24	0x3f140eb4	0.57834935
25	0x3f0546ba	0.52061045
26	0x3e6ee130	0.2332809
27	0xbe093eb8	-0.13402832
28	0xbde5b882	-0.11216833
29	0xbe60984e	-0.219331
30	0xbead60ee	-0.33863014
31	0xbed27d8b	-0.41111407
32	0xbef1a2d6	-0.47194546
33	0xbeb8c971	-0.36091188
34	0xbe9a2a7a	-0.30110532
35	0xbc4c3c63	-0.012465569
36	0xbb80feb2	-0.003936612
37	0xbd9a1604	-0.075237304
38	0xbe64323e	-0.22284791
39	0xbec38b6f	-0.38192317
40	0xbea4e53f	-0.3220615
41	0xbd582719	-0.05277166
42	0xbeaff78f	-0.3436856
43	0xbdf796ed	-0.12089334
44	0x3d91832d	0.07105098
45	0x3e91e70d	0.2849659
46	0x3eb33a09	0.35005215
47	0x3eb27e06	0.34861773
48	0x3e650b4b	0.22367589
49	0xbdfee0b0	-0.124451995
50	0x3eb9bf46	0.36278743
51	0x3ecb073a	0.3965395
52	0x3e9f4f4d	0.3111519
53	0xbdfe5f96	-0.12420575
54	0xbc99b00b	-0.018760702
55	0x3db84f6a	0.08999522
56	0x3be65be0	0.0070299953
57	0xbe0cd3c8	-0.13752663
58	0xbe5e868e	-0.21731016
59	0xbe433411	-0.1906283
60	0xbe81f5e8	-0.25382924
61	0xbe161b22	-0.14658788
62	0x3e1724ba	0.14760104
63	0x3e28efba	0.16497698
64	0xbe0ad8f3	-0.13559322
65	0xbed4c123	-0.41553602
66	0xbded4c56	-0.115868255
67	0x3df0ed98	0.117640674
68	0x3ebe4161	0.37159255
69	0xbe1ba8f4	-0.15201169
70	0xbe36f9fc	-0.17868799
71	0x3ee22660	0.44169903
72	0x3edf6aff	0.4363632
73	0x3e945279	0.28969172
74	0x3e97f939	0.2968233
75	0x3e0325eb	0.12807433
76	0xbe2c5967	-0.1683098
77	0xbe987d43	-0.29783067
78	0x3d13cbce	0.036083035
79	0x3e51a68c	0.20473689
80	0xbcd5ca4a	-0.026097436
81	0xbe3d1551	-0.18465163
82	0xbea6f75e	-0.326106
83	0xbe1dee06	-0.1542283
84	0xbe4f79b6	-0.20261273
85	0xbecd9d2f	-0.40158984
86	0xbef4415c	-0.47706115
87	0xbea7f96e	-0.32807487
88	0xbe64957a	-0.22322646
89	0xbdb153a3	-0.086585306
90	0x3cfc113c	0.030769937
91	0xbdf963a5	-0.12177209
92	0xbd64a67f	-0.055822846
93	0xbd5e57d6	-0.054282986
94	0xbc9f1ef0	-0.019423932
95	0xbdede299	-0.11615486
96	0xbd919f14	-0.0711042
97	0x3e294275	0.16529258
98	0xbd99abac	-0.07503447
99	0x3bdbb444	0.006704839
100	0x3dfe1f04	0.124082595
101	0x3e416f43	0.18890099
102	0x3e79f78f	0.24410842
103	0x3e49512a	0.19659868
104	0x3db167d6	0.08662383
105	0xbdff42f0	-0.12463939
106	0x3c08768c	0.008329045
107	0xbe5e3d73	-0.21703129
108	0xbed90e6c	-0.42393816
109	0xbef217b6	-0.47283715
110	0xbdf67512	-0.12034048
111	0xbda4e4dd	-0.08051465
112	0xbec94342	-0.39309126
113	0xbefb3964	-0.49067223
114	0xbee4fc8e	-0.44723934
115	0xbe806332	-0.2507568
116	0x3ec528c4	0.38507664
117	0x3e82026e	0.2539248
118	0xbe232d19	-0.15935172
119	0xbec38fba	-0.38195592
120	0xbe96bd15	-0.29441133
121	0x3d5b16bd	0.05348848
122	0x3ee7b984	0.45258725
123	0x3e8726c0	0.2639675
124	0xbe968be6	-0.2940361
125	0xbea5a29d	-0.32350627
126	0x3e0b29d3	0.13590173
127	0x3e463296	0.19355235
128	0x3e9bd9da	0.30439645
129	0xbd1e11b9	-0.03859112
130	0xbe9c8895	-0.30572954
131	0xbeae5e81	-0.34056476
132	0xbdcbe80b	-0.09956368
133	0x3e7ecef7	0.24883638
134	0x3db011bc	0.085971326
135	0xbe1380f4	-0.1440466
136	0xbe45f917	-0.19333301
137	0xbd68b211	-0.056810442
138	0x3cba1a6d	0.022717679
139	0x3e0eb393	0.1393569
140	0x3ea22b01	0.31673434
141	0x3e7e67b0	0.24844241
142	0x3e7c0164	0.24609905
143	0x3dc004ff	0.09375953
144	0x3dfaf037	0.122528486
145	0x3e5ec887	0.21756183
146	0x3eacb99e	0.33735365
147	0xbe79e9ae	-0.24405548
148	0x3ebe64b6	0.3718621
149	0x3f09a5e9	0.53768784
150	0xbf2a1618	-0.6643996
151	0xbe91ebb7	-0.2850015
152	0xbe216806	-0.15762338
153	0xbe0d5ec2	-0.13805678
154	0x3b512d8d	0.003191802
155	0x3f107844	0.5643351
156	0xbf1c2f0f	-0.61009306
157	0xbf388f56	-0.72093713
158	0x3ec18083	0.3779336
159	0x3ea64b91	0.32479528
160	0xbe8d0a66	-0.27546996
161	0x3ed3f65e	0.413989
162	0xbe10290b	-0.14078157
163	0xbf5e1c6c	-0.8676212
164	0x3eba7c11	0.3642278
165	0x3f350e02	0.707245
166	0xbc9b269d	-0.01893931
167	0xbe733e7c	-0.23754305
168	0x3e88ca21	0.26716712
169	0xbeee5dac	-0.4655584
170	0x3e40c1c0	0.1882391
171	0x3f3e76f0	0.74400234
172	0xbc7fb81b	-0.015607859
173	0xbf340609	-0.7032171
174	0x3e291ee2	0.16515687
175	0x3de3779a	0.111067966
176	0xbe0c233d	-0.13685317
177	0x3ed98ec7	0.42491743
178	0xbd064991	-0.032785002
179	0xbf47711a	-0.77906954
180	0xbe6b3525	-0.22969492
181	0x3ea4cad2	0.3218599
182	0xbd2e00c9	-0.042481218
183	0x3d3d0b84	0.04615356
184	0xbe1f2fd5	-0.1554559
185	0xbee926e0	-0.45537472
186	0xbce65afa	-0.028119553
187	0x3e90a9bd	0.282545
188	0x3ca49f53	0.020095503
189	0xbe22ed33	-0.15910797
190	0xbe0d7062	-0.13812402
191	0xbd592142	-0.053010233
192	0xbcb744b1	-0.022371622
193	0x3e8004db	0.25003704
194	0x3e0f6c49	0.14006151
195	0x3d147bdf	0.036250945
196	0xbe61f02a	-0.22064272
197	0xbd9485f3	-0.07252111
198	0x3dbdd111	0.09268392
199	0xbdc5d213	-0.09659209
200	0x3d905ba5	0.0704873
201	0xbe6b7edc	-0.22997612
202	0xbd98f7bb	-0.07469126
203	0xbe0b94cf	-0.13630985
204	0x3e26f864	0.16305691
205	0xbdc387fd	-0.09547422
206	0x3e36fac1	0.17869093
207	0x3edfe86f	0.4373202
208	0xbde92d1e	-0.113855585
209	0xbe26589e	-0.16244742
210	0xbe1dd95d	-0.15414949
211	0x3df36fbb	0.11886545
212	0x3dee5a8e	0.11638366
213	0x3f31d023	0.69458216
214	0x3f138136	0.57619035
215	0xbe481341	-0.19538595
216	0xbe1fe4ae	-0.15614578
217	0xbd76ba4e	-0.060236268
218	0x3ded2488	0.115792334
219	0x3ed074c8	0.40714097
220	0x3f973dea	1.181577
221	0x3ed031ac	0.40662897
222	0xbf02036a	-0.5078646
223	0xbdd42cf6	-0.10360138
224	0x3e40a337	0.18812262
225	0x3e566154	0.20935565
226	0x3ee8dc48	0.4548056
227	0x3f4d5faf	0.80224127
228	0xbf272528	-0.6529107
229	0xbef3a5a7	-0.4758732
230	0x3eaea236	0.34108132
231	0x3dfead2c	0.12435374
232	0x3e40ffbe	0.18847558
233	0x3e795b49	0.24351229
234	0xbe5de969	-0.2167107
235	0xbf24625c	-0.64212584
236	0x3e6493b1	0.22321965
237	0x3dc00096	0.09375112
238	0xbd56dc9a	-0.052456476
239	0xbe62b41a	-0.22139016
240	0xbe45d4b8	-0.19319427
241	0xbebcfa67	-0.36909792
242	0x3dca1e81	0.098690994
243	0x3e22b594	0.15889579
244	0xbd6aeddc	-0.057355747
245	0xbeba9683	-0.36442956
246	0x3e44669d	0.19179769
247	0x3cb7c403	0.022432333
248	0x3c3566ea	0.0110719
249	0xbe3fc58b	-0.187277
250	0xbe9c8c90	-0.3057599
251	0xbe88ed73	-0.2674366
252	0x3e0f88bb	0.14017002
253	0x3e3df29b	0.18549578
254	0xbea11cb7	-0.3146722
255	0x3e8a820e	0.2705235

conv_feature_extractor.bias f4 [25]
0	0xbc6974d7	-0.014249048
1	0x3d4039ab	0.046929996
2	0xbc60d78b	-0.013723264
3	0x3e680fd5	0.2266229
4	0x3e409799	0.1880783
5	0xbc51c424	-0.012803111
6	0xbe702b2b	-0.23453967
7	0xbcaed4ca	-0.0213417
8	0x3e26c271	0.16285111
9	0x3e61e148	0.22058594
10	0x3e71d268	0.2361542
11	0xbd2cd887	-0.042198684
12	0xbd8535ff	-0.065044396
13	0xbb997df0	-0.0046842024
14	0xbe87fc39	-0.26559618
15	0xbde15f5a	-0.11004515
16	0xbdb14dcc	-0.08657417
17	0x3ea7ce72	0.32774693
18	0xbd626913	-0.055275988
19	0xbdaa915a	-0.08328505
20	0xbd166884	-0.036720768
21	0xbeccab55	-0.39974466
22	0x3dda3519	0.10654659
23	0xbef8ac5a	-0.48568994
24	0x3e1683a0	0.14698648

hgru_unit.gain_bias f4 [1, 25, 1, 1]
0	0xc038010e	-2.8750644
1	0xbfa5b56c	-1.294599
2	0xc0069e86	-2.1034255
3	0xbff86404	-1.9405522
4	0xbe9f7907	-0.31147024
5	0xbf85d844	-1.0456624
6	0xbf7e69ae	-0.99380004
7	0xbfd55332	-1.6666014
8	0xc0066dd9	-2.1004546
9	0xc002d6ab	-2.0443523
10	0xbfdf9161	-1.7466241
11	0xc01d7892	-2.460484
12	0xbfd1f4bf	-1.6402816
13	0xc013810f	-2.304752
14	0xc0224e80	-2.5360413
15	0xbfda551f	-1.7057227
16	0xc023fe32	-2.5623899
17	0xc02274f5	-2.5383885
18	0xc0048760	-2.0707626
19	0xbfc4a1b2	-1.5361845
20	0xc0251aa7	-2.5797517
21	0xbebf9bee	-0.37423652
22	0xbf985b70	-1.1902905
23	0xc01fe623	-2.4984214
24	0xbf87db6e	-1.061384

hgru_unit.mix_bias f4 [1, 25, 1, 1]
0	0x4000bd6f	2.011562
1	0x3f5617d9	0.8363014
2	0x3ecf7456	0.40518445
3	0x3f274531	0.6533995
4	0xbe3657aa	-0.17806879
5	0xbe76a9f8	-0.24088275
6	0xbed5dfc9	-0.41772297
7	0x3fb9111e	1.4458349
8	0x3f9b33f5	1.2125231
9	0x3fce9635	1.613959
10	0x3db7fade	0.08983396
11	0x3faed8b4	1.3659883
12	0x3f42e0b6	0.7612413
13	0x3fe42372	1.7823317
14	0x3ffed261	1.9907953
15	0x3f52cb16	0.82341135
16	0x3fdfb961	1.7478448
17	0x3f9ccdda	1.2250321
18	0x4006dedc	2.1073523
19	0x3f6106ef	0.87901205
20	0x3ffb4240	1.9629593
21	0x3e9bd07a	0.30432492
22	0x3ee5b428	0.4486401
23	0x3fe87d50	1.8163242
24	0x3fec797b	1.8474573

hgru_unit.w_gate f4 [25, 25, 15, 15]
0	0x3d8ff66d	0.07029424
1	0x3e1c7408	0.15278637
2	0x3e326ef6	0.1742514
3	0x3e9887da	0.29791147
4	0x3e3e9631	0.18611981
5	0x3d49fe34	0.049314693
6	0xbdcb80c2	-0.09936668
7	0xbd98ebc5	-0.074668445
8	0xbd78933e	-0.060687296
9	0xbe874e65	-0.26426998
10	0xbe47a386	-0.19495973
11	0xbd6cfd50	-0.057858765
12	0xbcbe32df	-0.023217617
13	0x3d8e8d23	0.069605134
14	0x3ec123ab	0.37722525
15	0xbe564e32	-0.20928267
16	0xbc1c81f0	-0.009552464
17	0x3de1a20e	0.110172376
18	0x3dbe480c	0.092910856
19	0x3e256996	0.16153559
20	0x3e378086	0.17920122
21	0x3da50168	0.08056909
22	0xbe3e9a70	-0.186136
23	0xbe8079a2	-0.25092798
24	0xbee163c9	-0.44021443
25	0xbed272ba	-0.41103154
26	0xbe93c81d	-0.28863612
27	0xbcaa2c70	-0.020773143
28	0x3ea5598e	0.32294887
29	0x3eca0734	0.3945862
30	0xbea3687c	-0.31915653
31	0xbe1b13bc	-0.15144247
32	0xbc93610e	-0.017990615
33	0x3c6d45cd	0.014481974
34	0x3e211ff5	0.15734847
35	0x3e741846	0.23837385
36	0x3df297d3	0.118453644
37	0x3ca04598	0.019564435
38	0x3d8f4458	0.069954574
39	0x3be0ec54	0.00686411
40	0x3cd308db	0.025761059
41	0x3e3d7371	0.18501069
42	0x3e8e91ee	0.2784571
43	0x3e934a18	0.28767467
44	0x3e5ab43a	0.21357813
45	0xbc35731d	-0.011074808
46	0x3e158070	0.14599776
47	0xbd44ed75	-0.04807802
48	0xbde08498	-0.1096279
49	0xbc55c497	-0.013047359
50	0xbc99c066	-0.0187685
51	0xbc74abde	-0.014933554
52	0xbddb8000	-0.107177734
53	0xbe31acd8	-0.17351091
54	0xbe8cb341	-0.2748051
55	0xbe350658	-0.17678201
56	0xbc1e8eba	-0.009677583
57	0x3e06b8c0	0.13156414
58	0x3dc3bc1b	0.09557363
59	0x3e637799	0.22213592
60	0xbe571006	-0.21002206
61	0xbe150909	-0.14554228
62	0xbe4f7d37	-0.2026261
63	0xbe439475	-0.190996
64	0xbdf982e8	-0.121831715
65	0xbde46dbb	-0.11153742
66	0xbc8b0c0a	-0.016973514
67	0x3d3533bd	0.044238795
68	0xbdd1de0c	-0.1024743
69	0xbe97bb59	-0.29635122
70	0xbe7cc6e1	-0.24685241
71	0xbde5cf2c	-0.112211555
72	0x3db4d367	0.08829384
73	0x3e8d1df4	0.27561915
74	0x3e91b2c8	0.28456712
75	0xbdeaec2e	-0.11470829
76	0xbdabba9a	-0.08385201
77	0xbd90d56f	-0.07071959
78	0xbd2d987c	-0.04238175
79	0x3df3f475	0.11911861
80	0x3c1d2a44	0.009592596
81	0xbd796202	-0.060884483
82	0x3d043382	0.032275684
83	0xbd8a18aa	-0.067429855
84	0xbe881b3b	-0.26583275
85	0xbe8b08f0	-0.27155256
86	0xbe82327d	-0.25429145
87	0xbe117009	-0.14202894
88	0xbc9347ec	-0.017978631
89	0x3bd88b5b	0.0066084093
90	0xbe9d12e8	-0.30678487
91	0xbe14d0cc	-0.14532775
92	0xbe25b84a	-0.16183582
93	0xbe9c82af	-0.30568454
94	0xbe70a826	-0.23501644
95	0xbe2a86c9	-0.16652979
96	0x3d8a0b79	0.067404695
97	0x3ead292e	0.3382048
98	0x3e68998d	0.22714825
99	0xbd94b7fa	-0.07261653
100	0xbed88467	-0.42288515
101	0xbf11f08a	-0.5700766
102	0xbe87d5bd	-0.26530257
103	0x3d986086	0.074402854
104	0x3e258536	0.16164097
105	0xbe80640f	-0.2507634
106	0xbe40800e	-0.18798849
107	0xbe226228	-0.15857756
108	0xbe2c75e3	-0.16841845
109	0xbd5de7b0	-0.054176033
110	0xbd1d45e6	-0.03839674
111	0x3d53c618	0.05170259
112	0x3d8dba2a	0.069202736
113	0xbdbc4167	-0.09192162
114	0xbeaff8c2	-0.34369475
115	0xbf189a92	-0.59610856
116	0xbf164ae8	-0.5870805
117	0xbe9b6949	-0.30353764
118	0xbce975c1	-0.028498532
119	0x3e492749	0.19643892
120	0xbeaa7839	-0.33294848
121	0xbe832c4e	-0.2561974
122	0x3d06aee4	0.032881632
123	0x3e3aa61a	0.18227425
124	0x3d1b88f7	0.037972417
125	0x3d9735b8	0.07383293
126	0x3dc13066	0.094330594
127	0x3d98475e	0.07435487
128	0xbe037132	-0.1283615
129	0xbef0e511	-0.47049764
130	0xbef41d4b	-0.476786
131	0xbe8b0533	-0.27152404
132	0x3ca2010b	0.019775888
133	0x3e0b8166	0.1362358
134	0x3df22e3a	0.11825223
135	0xbeee32c5	-0.4652311
136	0xbea45e04	-0.32102978
137	0xbe31e3ca	-0.17372051
138	0xbddc88a0	-0.10768247
139	0xbdfa429e	-0.122197375
140	0xbea1be89	-0.3159068
141	0xbf05ec41	-0.5231362
142	0xbf0d5017	-0.5520033
143	0xbf337d4c	-0.7011306
144	0xbf32121f	-0.695589
145	0xbeda5e5a	-0.4265011
146	0xbe12cf2b	-0.14336841
147	0x3e0f4bfd	0.13993831
148	0x3e3381a1	0.17529918
149	0x3ea81411	0.3282781
150	0xbf439e2f	-0.76413244
151	0xbeaf6395	-0.34255663
152	0x3aac6183	0.0013151619
153	0x3daa9347	0.08328872
154	0x3d8727da	0.06599398
155	0xbdc7544d	-0.09732876
156	0xbe9d1b8f	-0.30685088
157	0xbecac7e3	-0.39605626
158	0xbf064599	-0.5244995
159	0xbefd9d36	-0.49534005
160	0xbeb2be89	-0.34910992
161	0xbde740b9	-0.11291642
162	0x3bb5cfa5	0.005548435
163	0x3e0ede0c	0.13951892
164	0x3e9cbc3a	0.30612355
165	0xbf42e6c4	-0.7613337
166	0xbee8f371	-0.4549823
167	0xbe09b050	-0.13446164
168	0xbdd1f48e	-0.10251723
169	0xbe3522a5	-0.17688997
170	0xbe776670	-0.2416017
171	0xbedc0b44	-0.42977345
172	0xbedc4606	-0.43022174
173	0xbeee0d64	-0.4649459
174	0xbf013856	-0.50476587
175	0xbeabca1e	-0.3355264
176	0xbe9afd23	-0.30271253
177	0xbe3b3331	-0.18281247
178	0x3c70df91	0.01470174
179	0x3ebf778e	0.373959
180	0xbf15bf4f	-0.5849504
181	0xbe5ef120	-0.2177167
182	0x3d36a9be	0.044595473
183	0x3e106a67	0.1410309
184	0x3cb1d6e3	0.021708911
185	0xbe7397b6	-0.23788342
186	0xbecbfcb1	-0.39841226
187	0xbee4c95a	-0.4468487
188	0xbed63cf0	-0.41843367
189	0xbe99f5fc	-0.30070484
190	0xbe0f6848	-0.14004624
191	0xbc8293bd	-0.015939588
192	0xbd0c42a5	-0.034243245
193	0x3e46367f	0.19356726
194	0x3f083edf	0.53220934
195	0xbedeb5d9	-0.43498114
196	0xbead30f7	-0.3382642
197	0xbdfde3b7	-0.12396949
198	0xbdcfa842	-0.101395145
199	0xbd998f9e	-0.07498096
200	0xbd6569ea	-0.05600921
201	0xbdea1bf9	-0.114311166
202	0xbe5b4b4f	-0.21415447
203	0xbe4611fa	-0.19342795
204	0xbe2335a2	-0.15938428
205	0xbe07bb80	-0.1325512
206	0xbc496b5c	-0.012293663
207	0x3d937c61	0.07201458
208	0x3eaf515a	0.34241754
209	0x3f3e5458	0.7434745
210	0xbd66b147	-0.05632141
211	0xbdb84c49	-0.08998925
212	0xbdf665b2	-0.120311156
213	0xbda74f32	-0.08169402
214	0xbd3ec8ab	-0.04657809
215	0xbe0c71cd	-0.13715287
216	0xbe5deaed	-0.21671648
217	0xbe1bb3e3	-0.1520534
218	0xbe1c24e3	-0.15248446
219	0xbdd726b5	-0.1050543
220	0xbce24655	-0.027621428
221	0x3df44aa2	0.119282976
222	0x3e945ee8	0.28978658
223	0x3f10e77f	0.56603235
224	0x3f5dc553	0.8662922
225	0xbe6c2fb4	-0.23065072
226	0xbe692e8b	-0.22771661
227	0xbe793ce3	-0.24339633
228	0xbe7d68b4	-0.24746972
229	0xbe4b037c	-0.19825548
230	0xbc94567d	-0.018107647
231	0xbc90634b	-0.017625472
232	0xbe5789ed	-0.21048708
233	0xbe6d924e	-0.23200342
234	0xbd350202	-0.044191368
235	0x3d03fea7	0.032225277
236	0x3db11f96	0.08648603
237	0x3dc0df6c	0.09417614
238	0x3e5b6be0	0.2142787
239	0x3ea5a847	0.32354948
240	0xbebb4f39	-0.3658388
241	0xbe8b1115	-0.2716147
242	0xbe520987	-0.20511447
243	0xbdb22b7d	-0.08699701
244	0xbd137ec1	-0.036009554
245	0xbdea884d	-0.114517786
246	0xbe643be8	-0.22288477
247	0xbeb4f5b7	-0.35343716
248	0xbea0a002	-0.31372076
249	0xbe78932f	-0.24274896
250	0xbde8085f	-0.11329722
251	0xbc1ccec8	-0.009570785
252	0x3daadf90	0.083434224
253	0x3e8a9e69	0.27073982
254	0x3ea16718	0.31523967
255	0xbe9a3b24	-0.30123246

hgru_unit.alpha f4 [1, 25, 1, 1]
0	0xbfaed19e	-1.365772
1	0x3de1ce6e	0.110257015
2	0xbf263d9b	-0.6493775
3	0xbe38bc92	-0.18040684
4	0x3d626ab5	0.055277545
5	0x3ed556b3	0.4166771
6	0x3e8753d4	0.26431143
7	0x3db94f3c	0.09048316
8	0xbe499975	-0.19687445
9	0xbed93307	-0.42421743
10	0x3f923b23	1.1424297
11	0xbf36a858	-0.7135062
12	0x3f1b453d	0.60652524
13	0x3ea17b88	0.3153956
14	0x3eab4a02	0.334549
15	0xbb1677a2	-0.002295949
16	0x3ea22ed3	0.3167635
17	0xbd313dc2	-0.043271787
18	0xbf408023	-0.7519552
19	0xbda54a70	-0.080708385
20	0xbf15ea47	-0.58560604
21	0x3e011fe1	0.12609817
22	0xbd1d6e42	-0.03843523
23	0xbded8bd1	-0.115989335
24	0x3f05cd60	0.522665

hgru_unit.mu f4 [1, 25, 1, 1]
0	0x3d883a64	0.06651762
1	0xbdc114ec	-0.09427819
2	0xbde8f347	-0.113745265
3	0x3de0381b	0.10948201
4	0x3df04024	0.11730984
5	0xbdba3b52	-0.09093346
6	0x3e8c1f5d	0.27367678
7	0x3d69bc7e	0.057064526
8	0xbdc4bfc1	-0.09606887
9	0x3df1c779	0.118056245
10	0xbe0d6d25	-0.13811167
11	0x3e0526b3	0.13003044
12	0xbc0e4045	-0.008682315
13	0x3e491cde	0.19639918
14	0x3e27b3e6	0.1637722
15	0xbd861d09	-0.06548507
16	0xbe18afa0	-0.14910746
17	0xbdf05b42	-0.11736156
18	0x3da58189	0.080813475
19	0xbdf330df	-0.11874556
20	0x3dee5370	0.11637008
21	0xbd53ef70	-0.051742017
22	0x3c1aa20b	0.009438048
23	0xbbcbdaab	-0.0062211356
24	0x3f0b06ce	0.5430726

hgru_unit.gamma f4 [1, 25, 1, 1]
0	0xbded9693	-0.116009854
1	0xbeab90af	-0.33508822
2	0xbd7ca549	-0.061681066
3	0xbe35cf65	-0.17754896
4	0x3d836c2f	0.06417119
5	0x3d8a2d1c	0.06746885
6	0xbd34e2c0	-0.04416156
7	0x3db742ba	0.08948274
8	0xbddd404c	-0.10803279
9	0xbe2fada5	-0.17156084
10	0xbde10eda	-0.10989161
11	0x3e577dec	0.21044129
12	0xbe56950a	-0.20955291
13	0xbe6847d9	-0.22683658
14	0xbd7ff4ca	-0.06248931
15	0xbdc63bfa	-0.09679408
16	0x3db87371	0.09006394
17	0x3d9d452b	0.07679208
18	0xbd9d1cdf	-0.07671522
19	0xbdc760ab	-0.09735235
20	0xbdad1f6b	-0.08453258
21	0xbd92265c	-0.07136223
22	0x3dc8414d	0.0977808
23	0x3e5bd4f5	0.21467955
24	0x3d342a56	0.043985687

hgru_unit.kappa f4 [1, 25, 1, 1]
0	0xbe212ff6	-0.15740952
1	0x3d889d9b	0.06670686
2	0xbe79299a	-0.24332276
3	0x3ee1b86a	0.4408601
4	0xbe2e60c0	-0.17029095
5	0x3dd5756c	0.10422787
6	0x3e9c42d1	0.30519727
7	0xbe4e3e99	-0.20141067
8	0x3f389740	0.7210579
9	0x3ef45762	0.47722918
10	0xbe4b05a9	-0.19826378
11	0x3ebcd101	0.36878207
12	0x3f2b8c73	0.67011184
13	0x3e2ede9f	0.1707711
14	0xbdc886b9	-0.09791321
15	0xbea2f958	-0.3183086
16	0x3e020506	0.12697229
17	0x3c8a346b	0.016870698
18	0xbed384b9	-0.41312197
19	0x3f1ff401	0.62481695
20	0x3eaecde5	0.3414146
21	0x3d268293	0.04065187
22	0x3f1cffb1	0.61327654
23	0x3e8cefb3	0.27526626
24	0xbc4d5f49	-0.012534925

hgru_unit.omega f4 [1, 25, 1, 1]
0	0xbc344c8f	-0.011004581
1	0x3f1c2c93	0.61005515
2	0xbecd51cc	-0.4010147
3	0xbcdfb7a6	-0.02730925
4	0xbeaf5b99	-0.3424957
5	0x3b528086	0.0032120063
6	0xbe33feb4	-0.1757763
7	0xbcc8d9c2	-0.024517898
8	0xbdc67a7c	-0.09691331
9	0x3d9e75db	0.07737323
10	0xbcf9f554	-0.03051249
11	0x3ed14837	0.40875408
12	0x3ecfcc03	0.40585336
13	0xbe695a05	-0.22788246
14	0xbd513225	-0.051073212
15	0x3d0b9b81	0.034083847
16	0xbc1a09c2	-0.0094017405
17	0x3d35237a	0.044223286
18	0xbc7ea7e4	-0.015542958
19	0xbd7b6179	-0.061372254
20	0xbc1a30db	-0.009411062
21	0x3f36237f	0.7114791
22	0x3e48c13c	0.19604963
23	0xbdd1cc0d	-0.10243998
24	0xbe1a08fb	-0.15042488

hgru_unit.n f4 [1, 8]
0	0xbe193b5f	-0.14964055
1	0xbe4fa76b	-0.20278709
2	0xbe538eae	-0.20659897
3	0xbe55454b	-0.20827214
4	0xbe624d7b	-0.22099869
5	0xbe304d29	-0.17216934
6	0xbe737aac	-0.23777264
7	0xbd014e8c	-0.03156905

hgru_unit.gain_kernel.weight f4 [25, 25, 1, 1]
0	0x3f42c821	0.7608662
1	0x3f3d6885	0.7398761
2	0xbef5cb39	-0.4800661
3	0xbfac8e0d	-1.348085
4	0xbe432029	-0.19055237
5	0xbf3652d8	-0.7122016
6	0x3d3281fa	0.043580987
7	0xbf0c6739	-0.54845005
8	0x3f25cdc3	0.6476709
9	0xbf72b28d	-0.94803697
10	0xbe34040f	-0.17579673
11	0xbe97b4ae	-0.29630035
12	0xbfc4219c	-1.5322757
13	0x3f7cef5a	0.9880272
14	0x3ed835fd	0.4222869
15	0xbe37e95b	-0.17960112
16	0xbe834cad	-0.25644436
17	0xbf1bda88	-0.6088033
18	0xbeda68e5	-0.42658153
19	0xbe0b47ea	-0.13601652
20	0x3e70159f	0.23445748
21	0x3ec32ac2	0.3811856
22	0x3f3ecddc	0.74532866
23	0x3eda0905	0.42585006
24	0x3f62c911	0.88588053
25	0x3ebc4b57	0.3677623
26	0x3e48f0a3	0.19623046
27	0x3fcbda93	1.5926079
28	0xbe3cf8a8	-0.1845423
29	0xbe426e74	-0.18987447
30	0x3e4b255b	0.19838469
31	0x3e910e09	0.2833102
32	0xbec6d378	-0.38833213
33	0x3d5182d0	0.051150143
34	0xbe947e75	-0.2900273
35	0x3f3bda1c	0.73379683
36	0x3eba1fb1	0.36352304
37	0xbdf3628a	-0.11884029
38	0x3f024646	0.5088848
39	0xbd6733ed	-0.056446005
40	0x3f8233a8	1.0172014
41	0xbf6da39c	-0.92827773
42	0xbcd91c30	-0.026502699
43	0xbd3ffde4	-0.04687299
44	0xbe7666e4	-0.24062687
45	0xbf08b14c	-0.53395534
46	0xbe00d418	-0.12580907
47	0x3f3b6baf	0.7321119
48	0x3ed888ca	0.42291862
49	0x3ebcc03f	0.36865422
50	0x3e29800a	0.1655275
51	0x3f5270c1	0.822033
52	0x3f71ac8b	0.94403905
53	0xbf4864f3	-0.78279036
54	0xbe915e5c	-0.28392303
55	0xbfdad464	-1.7096066
56	0xbe597c2b	-0.21238773
57	0xbdcfaa0f	-0.10139858
58	0xbd71ba89	-0.059015784
59	0x3ed21972	0.41035038
60	0xbef193e6	-0.4718315
61	0xbec3cc75	-0.38241926
62	0xbf237cbd	-0.6386221
63	0x3f1a039b	0.6016175
64	0xbf81fa65	-1.0154539
65	0x3f74420c	0.9541328
66	0xbeb7a545	-0.35868278
67	0xbf8a4aa0	-1.0804024
68	0xbdab760f	-0.08372127
69	0xbf3f1433	-0.74640197
70	0x3f225eb6	0.6342577
71	0x3ee0f6cf	0.439383
72	0x3efa9210	0.48939562
73	0xbf0e7470	-0.5564642
74	0xbed049af	-0.40681216
75	0x3efba54d	0.49149552
76	0x3f6852a8	0.90751123
77	0xbf02f1e8	-0.5115037
78	0xbf3969ea	-0.7242724
79	0xbe99c289	-0.3003123
80	0x3e44cda6	0.19219074
81	0x3f6d4e59	0.92697674
82	0xbef0ea15	-0.4705359
83	0x3eeaad88	0.4583552
84	0xbf0c5f50	-0.54832935
85	0xbed9fca4	-0.42575562
86	0xbe990bdb	-0.29891858
87	0xbf21dcca	-0.6322752
88	0x3e7ef9f1	0.24900033
89	0xbead7319	-0.33876875
90	0xbe307b1c	-0.17234462
91	0x3ee5234e	0.44753498
92	0x3f2d79e0	0.6776409
93	0xbf52310b	-0.82106084
94	0xbf935bc3	-1.1512378
95	0xbf1792be	-0.59208286
96	0xbcd2765f	-0.02569121
97	0x3f9347d9	1.1506301
98	0x3e35ce10	0.17754388
99	0xbf7becb6	-0.9840807
100	0x3f5b4112	0.85646164
101	0xbe93bbff	-0.28854367
102	0xbe828597	-0.25492546
103	0x3ec21fe0	0.37914944
104	0xbdceceee	-0.100980625
105	0xbf0680eb	-0.52540463
106	0xbfb820f6	-1.4385059
107	0x3e7f5988	0.24936497
108	0x3fba8ada	1.4573624
109	0xbc7420d0	-0.014900401
110	0xbf73e009	-0.95263726
111	0xbfb7a9ec	-1.4348731
112	0xbffb1ba3	-1.9617809
113	0x3f9b8de1	1.2152673
114	0x3fc8a0f5	1.567412
115	0x3e66178d	0.22469921
116	0xbfd59382	-1.6685641
117	0x3dfd2386	0.12360291
118	0xbf6f588f	-0.93494505
119	0x3e56ddc9	0.20983042
120	0xbfaa72de	-1.3316305
121	0xba980b1d	-0.0011599992
122	0xbf3b7c7a	-0.7323681
123	0x3f498878	0.7872386
124	0x3f00e692	0.5035182
125	0xbf2c149f	-0.67218965
126	0x3d1ac47f	0.03778505
127	0xbea02b1d	-0.31282893
128	0xbec17e5f	-0.37791726
129	0xc00cd4af	-2.2004812
130	0xbf866bd5	-1.0501658
131	0x3ef13834	0.47113192
132	0x3f683102	0.9069978
133	0x3f9829d8	1.188777
134	0xbf328779	-0.69737965
135	0xbe0aa3c2	-0.13539031
136	0xbf081ce2	-0.5316907
137	0xbf31f812	-0.6951915
138	0x3ecb7314	0.39736235
139	0x3edf34e7	0.4359505
140	0x3f6d2859	0.9263969
141	0xbe6316d1	-0.22176673
142	0xbf6b606f	-0.9194402
143	0x3ea8b690	0.32951784
144	0xbfc61bb9	-1.547721
145	0xbf258954	-0.6466267
146	0x3ebcd1c0	0.36878777
147	0x3e3d6dee	0.18498966
148	0x3f094345	0.5361827
149	0x3d24e166	0.04025402
150	0xbedf3f3f	-0.4360294
151	0x3f7955c6	0.97396505
152	0xbf8eabe4	-1.1146207
153	0xbf36b489	-0.71369225
154	0xbee1b92d	-0.4408659
155	0xbf31f416	-0.6951307
156	0xbe8dda34	-0.27705538
157	0xbf438f57	-0.76390594
158	0x3f201b34	0.6254151
159	0xbf690363	-0.9102079
160	0x3f1efac8	0.6210141
161	0x3ebff971	0.37494996
162	0xc0172dba	-2.362166
163	0x3ff030d2	1.8764899
164	0x3f02437c	0.50884223
165	0xbebfa78d	-0.3743252
166	0xbf196f76	-0.599357
167	0xbe7159d9	-0.2356943
168	0xbc85fd2a	-0.01635607
169	0xbf6c1435	-0.92218333
170	0xbeec1718	-0.4611137
171	0x3f41a8ca	0.75648177
172	0x3f3fc241	0.7490578
173	0xbc0a6f41	-0.008449377
174	0x3e02f85a	0.12790051
175	0x3e276c2e	0.16349861
176	0x3cc5e108	0.024155155
177	0x3f14e01f	0.5815448
178	0x3ef26680	0.47343826
179	0x3e1bb9aa	0.15207544
180	0xbe4aa0b1	-0.19787861
181	0xbf0157f1	-0.5052481
182	0xbf4bd654	-0.79623914
183	0x3e8aad2f	0.27085254
184	0xbff53137	-1.9155644
185	0x3e609fa7	0.21935903
186	0xbf0a5dbc	-0.5404928
187	0xbf1cd702	-0.61265576
188	0x3db83a32	0.08995475
189	0x3ec6e689	0.3884776
190	0xbe89607a	-0.26831418
191	0xbf870bc9	-1.0550472
192	0xbf656f52	-0.89622986
193	0xbf6b3aeb	-0.91886777
194	0xbf40dbb0	-0.75335217
195	0x3e3a977a	0.18221846
196	0x3c88daef	0.016705958
197	0x3f0b8363	0.54497355
198	0x3e93788a	0.28802902
199	0x3f54892d	0.83021814
200	0x3eeb1bd6	0.45919675
201	0x3e0509e0	0.12992048
202	0x3dae0a26	0.084980294
203	0xbfae9826	-1.3640182
204	0xbf6b9fdf	-0.9204082
205	0x3f3226af	0.69590276
206	0x3ee69d5c	0.4504193
207	0xbf24330d	-0.641404
208	0xbeb16900	-0.3465042
209	0x3f343f9e	0.7040957
210	0xbf83fec3	-1.0312122
211	0x3ecf2df9	0.40464762
212	0xbd86dd21	-0.06585146
213	0x3eadd486	0.33951205
214	0xbf90bd66	-1.13078
215	0x3e8d1625	0.27555957
216	0xbe122bf0	-0.14274573
217	0x3f0677b2	0.5252639
218	0x3f0bf81d	0.54675466
219	0xbf03fdb4	-0.51558995
220	0xbdda4166	-0.10657005
221	0x3ea011cf	0.31263587
222	0x3f7c9b4d	0.9867447
223	0xbe8cfbf0	-0.27535963
224	0x3ed19fce	0.40942234
225	0xbd9de92b	-0.07710489
226	0x3f5312e7	0.8245072
227	0x3f40340b	0.7507941
228	0x3d819089	0.06326396
229	0xbf408e7a	-0.752174
230	0x3ebd2d91	0.36948827
231	0xbed6fd37	-0.41990063
232	0x3e636d2d	0.22209616
233	0xbe85777e	-0.26067728
234	0xbeb10df3	-0.34580955
235	0x3e5d3f19	0.21606101
236	0x3e6685c6	0.22511968
237	0xbf17e017	-0.5932631
238	0x3f7ab108	0.9792638
239	0xbe29bceb	-0.16575973
240	0x3ea188ac	0.31549585
241	0xbf00992c	-0.5023372
242	0xbf6924de	-0.9107188
243	0xbe5a9ba0	-0.21348429
244	0xbe19d046	-0.15020856
245	0xbf827c7a	-1.0194237
246	0xbf60b941	-0.87782675
247	0x3f410cd4	0.754102
248	0xbe28a4af	-0.16469072
249	0xbfa18b9c	-1.262073
250	0xbf887a32	-1.0662291
251	0x3eb53c8a	0.3539775
252	0xbf742f30	-0.953845
253	0xbefea10a	-0.49732238
254	0x3e6766e4	0.22597843
255	0xbed5dbc4	-0.4176923

hgru_unit.mix_kernel.weight f4 [25, 25, 1, 1]
0	0xbedaf83a	-0.42767507
1	0xbec4003f	-0.38281438
2	0xbdfe9b20	-0.124319315
3	0x3e56eec9	0.20989527
4	0xbd950f50	-0.07278311
5	0x3e964ca4	0.29355347
6	0x3be7385f	0.0070562805
7	0x3f05a0d4	0.5219853
8	0x3f675eb2	0.9037887
9	0x3f3d40ac	0.73926806
10	0xbe7fc7d2	-0.24978569
11	0x3f2f0450	0.68365955
12	0x3ddf5594	0.109049946
13	0xbe878005	-0.2646486
14	0xbf10fc7a	-0.5663525
15	0xbd66df46	-0.056365274
16	0xbe9a2e6f	-0.3011355
17	0x3f0bfbb4	0.54680943
18	0x3ed63f11	0.4184499
19	0xbec7c569	-0.390178
20	0xbeb4ffea	-0.35351497
21	0xbde642cd	-0.1124321
22	0x3e8c3caa	0.27390033
23	0x3f2fb74d	0.6863907
24	0xbd4dae75	-0.050215203
25	0xbe509be4	-0.20371968
26	0x3f5d795c	0.86513305
27	0x3e4c1de2	0.19933274
28	0xbe5cc0c0	-0.21557903
29	0xbe116e7d	-0.14202304
30	0x3f3dde6f	0.7416753
31	0x3e7f3fd1	0.24926688
32	0x3dced87e	0.10099886
33	0xbe70d753	-0.2351964
34	0xbde9adb2	-0.11410083
35	0x3e5b772b	0.21432178
36	0xbef6abea	-0.48178035
37	0xbe78ffaa	-0.24316278
38	0x3ef83613	0.48478755
39	0x3e1a9ab0	0.15098071
40	0x3f668076	0.90039766
41	0x3f43c168	0.7646699
42	0x3f276516	0.6538862
43	0x3db252a6	0.0870717
44	0x3d74eadc	0.05979429
45	0x3eb908fe	0.36139673
46	0xbf0fb2cf	-0.56132215
47	0xbefc44c1	-0.49271205
48	0xbf32ad76	-0.6979593
49	0x3ee5a2c0	0.4485073
50	0x3f78a3ef	0.9712514
51	0xbe9f4def	-0.31114146
52	0xbe1d1a56	-0.15342078
53	0xbe391615	-0.1807483
54	0xbedb8ea7	-0.42882273
55	0xbf7d5c7c	-0.98969245
56	0xbe93e991	-0.28889135
57	0xbf22fe02	-0.63668835
58	0xbdf557ce	-0.11979638
59	0xbfab0b18	-1.336276
60	0x3efe2e59	0.49644735
61	0xbf19bec4	-0.6005671
62	0x3eb72668	0.3577149
63	0x3db91e5e	0.09038995
64	0x3cbb390e	0.022854354
65	0xbed80b79	-0.42196253
66	0xbed8b2a8	-0.42323804
67	0xbedfc9dd	-0.43708697
68	0xbe27e6eb	-0.16396682
69	0xbed77e6a	-0.42088634
70	0xbe4007ea	-0.18753019
71	0xbf60b11c	-0.8777025
72	0xbed1371d	-0.4086236
73	0xbe79a827	-0.24380551
74	0x3d4a4fcf	0.049392518
75	0x3e8be68a	0.27324325
76	0x3dc7222e	0.09723316
77	0xbd2faedd	-0.042891372
78	0x3f3d97ff	0.7406005
79	0xbe457a69	-0.19284977
80	0x3ea5c7d6	0.32379025
81	0xbed9fe6b	-0.42576918
82	0x3d6aad0d	0.05729394
83	0xbe972022	-0.29516703
84	0xbe7b9ecd	-0.24572296
85	0xbe820931	-0.25397637
86	0x3e987b2d	0.29781476
87	0x3def6502	0.116891876
88	0xbe12515a	-0.14288846
89	0xbf0c119d	-0.54714376
90	0x3dc6f7d0	0.09715235
91	0x3ed21a01	0.41035464
92	0x3ec5479d	0.385312
93	0xbee7c1d2	-0.4526506
94	0xbe83f6f0	-0.25774336
95	0x3f1882af	0.5957441
96	0xbe450fc6	-0.19244298
97	0x3ee83014	0.4534918
98	0xbee90779	-0.45513514
99	0x3f2d1a64	0.67618394
100	0xbf11378d	-0.5672539
101	0x3f15f489	0.58576256
102	0x3ec05c1c	0.37570274
103	0xbfbbe26d	-1.4678475
104	0x3f70c241	0.9404641
105	0x3f1da87a	0.615852
106	0x3f4c876f	0.79894155
107	0xbef7ebc8	-0.48422074
108	0x3e8ccdc0	0.27500725
109	0x3f351ff8	0.70751905
110	0x3fab732f	1.3394526
111	0x3e8ee42d	0.2790846
112	0x3f02728b	0.5095603
113	0x3a943b2b	0.0011309137
114	0xbd05bae6	-0.032648943
115	0x3f3b56d4	0.73179364
116	0xbf92ec20	-1.147831
117	0x3f944b50	1.1585484
118	0xbe4ea729	-0.20180954
119	0x3eb637c4	0.3558942
120	0x3f63ce8c	0.8898704
121	0x3e729597	0.23689876
122	0x3e7a6b77	0.24455057
123	0x3e68383d	0.22677703
124	0xbe55cdde	-0.20879313
125	0xbdcb9413	-0.09940352
126	0x3ea9dacd	0.33174744
127	0x3e6efc96	0.23338541
128	0xbf70cf3c	-0.94066215
129	0x3eb227ee	0.3479609
130	0x3f663a32	0.8993255
131	0x3e7fb2fc	0.24970621
132	0x3e9f1790	0.31072664
133	0x3f87773c	1.0583262
134	0xbdd6e66d	-0.10493169
135	0x3f22366f	0.6336431
136	0x3f0ee99e	0.5582522
137	0x3ed0c0eb	0.40772185
138	0x3f341f84	0.7036059
139	0x3e8f81dc	0.28028762
140	0xbf44ec3d	-0.7692297
141	0x3f2190de	0.63111675
142	0xbe428d53	-0.18999223
143	0x3f2fb442	0.68634427
144	0x3eca3cc4	0.39499485
145	0x3f1fb6dd	0.623884
146	0xbef25b39	-0.47335222
147	0x3f4a1b33	0.7894775
148	0xbf25248c	-0.6450889
149	0x3f8dc6ae	1.1076257
150	0xbce98b1f	-0.02850872
151	0x3ec0e961	0.37678054
152	0xbe634251	-0.22193266
153	0x3d35838e	0.044314913
154	0x3c94719b	0.018120578
155	0x3f4a8f91	0.79125315
156	0x3e6115f6	0.21981034
157	0x3e8aed16	0.27134007
158	0xbe549699	-0.20760573
159	0x3df4a644	0.11945775
160	0xbdb9acff	-0.090661995
161	0x3e999ba3	0.30001554
162	0x3eaab7be	0.3334331
163	0x3d089c57	0.033352222
164	0xbea9c8b9	-0.33160952
165	0x3ecce132	0.4001556
166	0x3f6ed6f9	0.9329677
167	0x3e0ae09a	0.13562241
168	0xbe3ad483	-0.1824513
169	0x3e4e6ac3	0.20157914
170	0xbf046fa4	-0.5173285
171	0xbea1dc38	-0.31613326
172	0x3e3883ab	0.18018977
173	0xbf048693	-0.51767844
174	0xbf24ff16	-0.6445173
175	0xbf4318e0	-0.7620983
176	0x3eb412d5	0.35170618
177	0xbd410122	-0.04712022
178	0xbd434700	-0.047675133
179	0x3f468433	0.7754547
180	0x3f09eceb	0.53877133
181	0x3ebc552b	0.36783728
182	0x3ce1c393	0.027559077
183	0xbe78d0c5	-0.2429839
184	0x3ecb18fb	0.39667496
185	0x3e1ab8fa	0.15109625
186	0xbe579c52	-0.21055725
187	0xbd86efea	-0.06588729
188	0x3e90847c	0.28226078
189	0xbf81ecb6	-1.0150363
190	0xbee8257e	-0.45341104
191	0x3efdc41e	0.49563688
192	0xbeb575e5	-0.3544151
193	0x3e60c85b	0.2195143
194	0x3eab1e1e	0.33421415
195	0xbed1db1c	-0.4098748
196	0xbeaf24dd	-0.34207812
197	0xbe21cb55	-0.15800221
198	0x3e0863f2	0.13319376
199	0x3f44b34f	0.76836103
200	0x3e8714fe	0.26383203
201	0x3e1142d1	0.14185645
202	0x3c9f241f	0.019426404
203	0x3efe7223	0.49696454
204	0x3daf823e	0.085697636
205	0xbebff509	-0.37491634
206	0x3bbc6f69	0.005750586
207	0xbe77109b	-0.24127428
208	0xbebcea59	-0.36897543
209	0x3d946420	0.0724566
210	0xbf280d64	-0.6564543
211	0xbe111715	-0.14168961
212	0x3d90e2ef	0.07074534
213	0xbf2d5a67	-0.6771607
214	0xbe82097d	-0.25397864
215	0xbdba4420	-0.09095025
216	0xbeee7364	-0.4657241
217	0xbf1e2ded	-0.6178883
218	0xbf19aed2	-0.6003238
219	0xbf1ecbd2	-0.62029755
220	0xbed8053c	-0.42191494
221	0xbf4b60ae	-0.79444396
222	0xbc24a5b4	-0.010049272
223	0xbe92a0b2	-0.28638226
224	0xbe823c1a	-0.2543648
225	0xbe666f8f	-0.22503494
226	0xbe3ac429	-0.18238892
227	0xbf486d16	-0.7829145
228	0xbd19d1b8	-0.03755352
229	0xbead200f	-0.3381352
230	0xbe0697a0	-0.13143778
231	0x3ed70211	0.41993764
232	0xbcf8b357	-0.030358953
233	0x3d82be34	0.063839346
234	0x3f010921	0.50404555
235	0x3de2947d	0.11063478
236	0x3efebecc	0.4975494
237	0xbe1791aa	-0.1480166
238	0x3dffdca8	0.12493259
239	0xbdf93452	-0.121681824
240	0xbe80012b	-0.2500089
241	0xbe36c937	-0.17850195
242	0xbf11b698	-0.5691924
243	0x3e9bbcbd	0.30417433
244	0x3ed10a05	0.40827957
245	0xbe02227a	-0.12708464
246	0x3e1e5381	0.15461542
247	0x3ea90771	0.3301349
248	0x3e60191d	0.2188458
249	0x3d88abf4	0.066734225
250	0xbeed9176	-0.4640004
251	0x3def16ef	0.11674296
252	0xbe94057c	-0.28910434
253	0xbe830900	-0.25592804
254	0x3f015a67	0.5052857
255	0x3e1648e7	0.14676248

conv_readout.weight f4 [2, 25, 1, 1]
0	0x3e901cbc	0.28146923
1	0x3e2d74e2	0.16939119
2	0xbb79a0bd	-0.0038090192
3	0xbdff7305	-0.1247311
4	0x3b0adffd	0.0021190636
5	0xbe605bb0	-0.21909976
6	0x3ebb61ee	0.36598152
7	0x3e365410	0.17805505
8	0x3ef1efa4	0.47253144
9	0xbe7312dd	-0.23737665
10	0xbdabd6af	-0.08390557
11	0xbe7c05d5	-0.246116
12	0xbde06311	-0.109563954
13	0xbef443d7	-0.47708008
14	0xbd09a15e	-0.033601157
15	0x3e8cae4a	0.27476722
16	0xbf08eaa0	-0.5348301
17	0x3e255c9b	0.16148607
18	0xbeaa39ec	-0.33247316
19	0xbe7a2045	-0.24426372
20	0xbd517157	-0.05113348
21	0xbd69e545	-0.057103414
22	0xbe520678	-0.2051028
23	0xbf2301a1	-0.6367436
24	0xbd75a27c	-0.05996941
25	0xbe869c8e	-0.26291317
26	0xb808028b	-3.2427295e-05
27	0xbe7603ea	-0.2402493
28	0x3e14e854	0.14541751
29	0x3cd410c4	0.0258869
30	0xbe8cd567	-0.27506563
31	0x3e35bb00	0.17747116
32	0x3eb59b96	0.35470265
33	0x3c6200d8	0.0137941465
34	0xbe936bc5	-0.2879316
35	0xbed2a81a	-0.41143876
36	0xbdf13fbb	-0.11779734
37	0xbd960353	-0.07324853
38	0x3d71cde1	0.059034232
39	0x3e7e5410	0.24836755
40	0x3f0600ca	0.52344954
41	0xbe11c25f	-0.14234303
42	0xbf00242a	-0.5005518
43	0x3f347420	0.7048969
44	0x3df91d60	0.12163806
45	0x3f2e668f	0.6812524
46	0x3d3123a3	0.043246876
47	0x3e255026	0.16143855
48	0x3e0d47d5	0.13796933
49	0x3e6f7b00	0.23386765

conv_readout.bias f4 [2]
0	0xbd5d0619	-0.053960893
1	0xbe096bd7	-0.13420044

bn2_1.weight f4 [25]
0	0x3f5edbf3	0.87054366
1	0x3ea02739	0.31279925
2	0x3f0f7c27	0.56048816
3	0x3f2a4964	0.66518235
4	0x3e482c70	0.19548202
5	0x3f4ea1ad	0.8071545
6	0x3f5ba9c1	0.858059
7	0x3f6b0fae	0.918208
8	0x3ed606ad	0.41801968
9	0x3f8dbb14	1.1072717
10	0x3f63d7ee	0.8900136
11	0x3e4f5f3a	0.2025117
12	0x3f0bf03c	0.54663444
13	0x3f363781	0.7117844
14	0x3f5aead6	0.8551458
15	0x3f80d5bf	1.006523
16	0x3f6c3fc5	0.92284805
17	0x3f46e7ac	0.77697253
18	0x3f86e3ca	1.0538266
19	0x3f2bd161	0.6711636
20	0x3fa1e9ee	1.2649515
21	0x3e0a3d6f	0.13499998
22	0x3f0b5598	0.5442748
23	0x3f7fc376	0.99907625
24	0x3eef4e20	0.46739292

bn2_1.bias f4 [25]
0	0x3c16d80e	0.009206785
1	0x3e392173	0.18079166
2	0xbdffc28d	-0.124882795
3	0x3d4ffe6a	0.050779738
4	0x3da6196a	0.08110316
5	0x3e6aca72	0.2292879
6	0x3dfdf150	0.12399542
7	0xbdf1acaf	-0.11800515
8	0xbd6771a6	-0.056504868
9	0x3e3c4081	0.18383981
10	0xbe2bd1c3	-0.16779236
11	0xbe1e4b6b	-0.15458457
12	0x3e301577	0.17195688
13	0x3e37b508	0.17940152
14	0xbe03e514	-0.12880355
15	0xbe2c5947	-0.16830932
16	0x3db012d0	0.08597338
17	0xbd8b20b6	-0.067933485
18	0xbd96d075	-0.07363979
19	0xbe86457a	-0.2622488
20	0xbe7f29d9	-0.24918307
21	0xbde58135	-0.11206285
22	0x3d56910c	0.05238442
23	0x3db0d83f	0.08634996
24	0xbe8b1c4c	-0.27170026

bn2_1.running_mean f4 [25]
0	0xbbe09157	-0.0068532634
1	0xbc7c67d1	-0.015405611
2	0xbb6d857e	-0.0036242898
3	0x3c74b035	0.014934589
4	0xba209551	-0.00061257655
5	0x3b7f193b	0.003892495
6	0x3a8a2be4	0.0010541645
7	0x3c34350f	0.010998978
8	0xbc86d3e6	-0.016458463
9	0x3cb6de9e	0.022322949
10	0xba740a28	-0.0009309375
11	0x3c8cba0b	0.017178556
12	0x3c865aff	0.016400812
13	0xbccd5502	-0.025064949
14	0x3a255693	0.0006307151
15	0xbc808268	-0.015687183
16	0x3ca54116	0.020172637
17	0x3c794567	0.015214301
18	0x3c322ed1	0.01087542
19	0x3c5027f4	0.012704838
20	0x3c292649	0.010324069
21	0xba60f578	-0.00085814996
22	0xbc456aa0	-0.012049347
23	0xbc7fd04d	-0.015613628
24	0xbc775a3a	-0.015097195

bn2_1.running_var f4 [25]
0	0x390d13f3	0.0001345424
1	0x38265590	3.965717e-05
2	0x37a81980	2.0039035e-05
3	0x3884b205	6.327409e-05
4	0x379bf999	1.8593668e-05
5	0x37ad21ac	2.0638887e-05
6	0x36de7dc3	6.630756e-06
7	0x38cd591f	9.791762e-05
8	0x388de82d	6.76665e-05
9	0x38efb127	0.00011429405
10	0x38002477	3.055154e-05
11	0x38d8bb53	0.000103345745
12	0x383b8bd3	4.4714496e-05
13	0x38105aad	3.4416724e-05
14	0x3889b258	6.565888e-05
15	0x382a3806	4.0583334e-05
16	0x38705e30	5.7308178e-05
17	0x3847045b	4.7449354e-05
18	0x38dfd991	0.000106739935
19	0x38516aff	4.992913e-05
20	0x3892aa2d	6.99352e-05
21	0x37c1b119	2.308986e-05
22	0x37d05c4e	2.4838515e-05
23	0x39368bc2	0.00017408936
24	0x3896804b	7.176454e-05

bn2_2.weight f4 [2]
0	0x3f86e3c7	1.0538262
1	0x4001088a	2.0161462

bn2_2.bias f4 [2]
0	0xbd5ded4a	-0.054181375
1	0xbd84e45d	-0.06488869

bn2_2.running_mean f4 [2]
0	0x4021ed18	2.530096
1	0x4025406a	2.5820565

bn2_2.running_var f4 [2]
0	0x3d45d58f	0.04829937
1	0x3f4f5d11	0.81001383

fc.weight f4 [2, 2]
0	0xbf889302	-1.0669863
1	0xbfd5f894	-1.6716485
2	0xbee9c52e	-0.4565825
3	0x3f367ac2	0.71281064

fc.bias f4 [2]
0	0x3d608b5c	0.054820403
1	0xbd608f03	-0.054823887
